DeepThinking/check_default/dalernn_mazes_small_SGD_depth=36_width=2_lr=0.001_batchsize=50_epoch=159_log.pth (torch, 896401 bytes, 90 tensors)

L3_convs.0.weight f4 [32, 3, 5, 5]
0.0025834683 -0.112813756 -0.17841156 -0.016777543 -0.006185517 -0.014716015 0.073006906 -0.102479294
-0.04094831 -0.128369 -0.18021545 -0.081818506 0.03479509 -0.080796905 -0.14256945 -0.16784507
-0.023240829 -0.091451585 -0.045997385 -0.050519705 -0.011921685 -0.059133127 0.095849924 0.08884588
-0.08958877 0.053010885 0.021119868 0.08882517 -0.12493059 0.14826433 0.08138691 -0.0054092663
0.084761724 -0.09219545 0.17464508 0.02119634 0.10209003 0.0888861 0.019332446 -0.06862956
0.030828595 0.08645209 0.03649468 0.12077268 0.060254533 0.02922619 0.13081923 0.054788727
-0.01965009 0.0061052986 0.015687253 0.03775629 -0.037406154 0.08301984 -0.017855983 -0.02577957
0.05257323 0.06808469 0.03566987 -0.016339425 -0.04365091 0.1092679 0.124471284 0.12020027
-0.098038815 -0.035299268 0.13294162 -0.008374922 -0.02076661 -0.010745964 -0.049283903 -0.14731082
-0.21355934 -0.10788425 0.018929558 0.15036123 0.042122554 -0.045292195 -0.11976341 0.10128342
-0.0189887 0.09122768 -0.10133254 0.07287794 -0.0863206 0.10515309 -0.0046523833 -0.077427946
-0.06290711 0.07886301 0.025136119 -0.035517745 0.063682586 -0.04660344 0.026352726 -0.021634338
0.10017371 0.11217251 0.012751831 -0.006284895 -0.056913007 0.07758139 0.022790145 -0.10019234
-0.116919436 -0.113225244 0.086334534 -0.100550905 0.017373336 -0.14641848 0.14167947 0.11809359
0.009424416 -0.063484825 -0.10976 0.08041248 0.103011 0.07136608 -0.128972 0.08631005
0.10893147 -0.09020604 -0.11246505 -0.014379277 0.09074447 -0.041110113 -0.08380652 0.10485247
0.039209973 0.06252466 0.02715054 0.09602277 0.0034051542 0.050164573 0.034472823 -0.09843584
0.019413061 0.063074395 -0.10325944 -0.015425429 -0.0844471 -0.030587187 -0.018170863 -0.08670237
0.08745535 0.03414792 -0.033838306 -0.0045826817 0.004897336 0.083849005 -0.020629695 -0.008747237
-0.020985726 0.08927205 -0.07733122 0.030766949 0.07657304 -0.09535594 0.019198535 -0.065142944
-0.09293514 0.033951413 -0.0074589914 0.025872622 -0.032050803 -0.04874281 -0.076195665 -0.030244507
-0.111402914 -0.09582157 -0.06752039 0.024619028 -0.023699414 -0.025710056 0.013763679 0.010320501
0.020579118 -0.07168999 0.05792698 -0.07280685 -0.037071362 -0.07963215 -0.06330327 0.054974504
0.031843748 0.14946595 0.11099776 0.027654815 -0.020525686 -0.011303906 0.12241426 0.04109785
0.057990056 -0.08409757 0.11839928 0.11283005 0.03748499 -0.08861818 -0.11584095 -0.043856196
-0.026633918 -0.0021144575 0.063552946 0.077396385 0.06621506 -0.07277244 -0.08208072 0.04261517
0.04208347 -0.02516607 -0.10867834 -0.056809973 -0.019707033 0.013232973 -0.03357515 -0.06483217
-0.06500624 0.0067537976 0.105155855 -0.006063221 -0.05740965 -0.008003504 -0.052721485 -0.010236346
-0.022131344 0.039593454 0.040353566 0.04388888 -0.06705254 0.081302725 0.05283451 -0.12579216
0.01311275 -0.025193626 0.11814499 -0.06571272 0.008006973 0.008263839 -0.0824501 -0.07820157
0.0051275287 -0.07640163 -0.0059201 0.0040408014 -0.09315165 -0.031021042 0.013421163 -0.05653931
-0.021160854 -0.041545294 0.09263092 0.010079611 0.008024449 -0.09248494 0.026556958 0.026193004
00000000: 684f 293b e60a e7bd 85b1 36be 0f71 89bc
00000010: e1af cabb 711b 71bc a584 953d aae0 d1bd
00000020: 6ab9 27bd 2a73 03be 668a 38be 7690 a7bd
00000030: 4c85 0e3d d978 a5bd bafd 11be 94df 2bbe
00000040: 8d63 bebc f84a bbbd c167 3cbd c0ed 4ebd
00000050: 2c53 43bc 9435 72bd f74c c43d d4f4 b53d
00000060: 517a b7bd f121 593d 9303 ad3c f9e9 b53d
00000070: 9cdb ffbd 9bd2 173e 2eae a63d 3740 b1bb
00000080: 8e97 ad3d f8d0 bcbd 29d6 323e f2a3 ad3c
00000090: 9414 d13d ea09 b63d 145f 9e3c a88d 8cbd
000000a0: 408c fc3c cb0d b13d 727b 153d ab57 f73d
000000b0: 75cd 763d c36b ef3c 7af5 053e 256a 603d
000000c0: 3af9 a0bc f50e c83b 8e82 803c 57a6 1a3d
000000d0: 3237 19bd 4e06 aa3d b646 92bc ad2f d3bc
000000e0: 0757 573d fc6f 8b3d 921a 123d 42da 85bc
000000f0: 4ccb 32bd d9c7 df3d cdea fe3d 8f2b f63d
00000100: 93c8 c8bd f795 10bd d921 083e f836 09bc
00000110: bd1e aabc d70f 30bc ebdd 49bd a6d8 16be
00000120: 4daf 5abe 6bf2 dcbd 2912 9b3c 4bf8 193e
00000130: b388 2c3d 4f84 39bd 8546 f5bd af6d cf3d
00000140: 318e 9bbc 94d5 ba3d 6f87 cfbd 0841 953d
00000150: dbc8 b0bd 815a d73d 0573 98bb 8b92 9ebd
00000160: 71d5 80bd ee82 a13d 43ea cd3c 0e7b 11bd
00000170: 046c 823d 40e3 3ebd ace1 d73c 7f3a b1bc
00000180: e027 cd3d b3ba e53d 0eed 503c 85f1 cdbb
00000190: 9d1d 69bd fee2 9e3d 66b2 ba3c a431 cdbd
000001a0: 7573 efbd a3e2 e7bd 29d0 b03d a2ed cdbd
000001b0: 8752 8e3c baee 15be 6c14 113e 0ddb f13d
000001c0: de68 1a3c 5504 82bd dac9 e0bd 4caf a43d
000001d0: 6ef7 d23d 6128 923d 3c11 04be 53c3 b03d
000001e0: 7617 df3d f2bd b8bd 1354 e6bd 0f97 6bbc
000001f0: 3dd8 b93d 1463 28bd c1a2 abbd e4bc d63d
00000200: a39a 203d ee0c 803d cf6a de3c 96a7 c43d
00000210: 0229 5f3b 5e79 4d3d 6033 0d3d bb98 c9bd
00000220: 2408 9f3c 262d 813d af79 d3bd f0ba 7cbc
00000230: 9af2 acbd fb91 fabc 10db 94bc 0391 b1bd
00000240: ca1b b33d b0de 0b3d 099a 0abd 522a 96bb
00000250: d579 a03b 07b9 ab3d 9bff a8bc 9250 0fbc
00000260: 42ea abbc 44d4 b63d d55f 9ebd f80a fc3c
00000270: 53d2 9c3d fa49 c3bd 3f46 9d3c aa69 85bd
00000280: c754 bebd a310 0b3d 8e6a f4bb d2f2 d33c
00000290: b447 03bd 8aa6 47bd 790c 9cbd 54c3 f7bc
000002a0: 3627 e4bd 193e c4bd 2148 8abd d8ad c93c
000002b0: 4625 c2bc e59d d2bc 0e81 613c 5217 293c
000002c0: 8a95 a83c 34d2 92bd d744 6d3d c21b 95bd
000002d0: 24d8 17bd 2e16 a3bd 25a5 81bd f22c 613d
000002e0: 976e 023d 9a0d 193e cb52 e33d 5a8c e23c
000002f0: 7c25 a8bc 0534 39bc 54b4 fa3d 3856 283d
00000300: fb86 6d3d 593b acbd 527b f23d 7113 e73d
00000310: dc89 193d 737d b5bd 053e edbd 8ea2 33bd
00000320: 602f dabc b692 0abb 0c28 823d ff81 9e3d
00000330: c39b 873d b809 95bd f019 a8bd 3f8d 2e3d
00000340: b75f 2c3d 1329 cebc c092 debd 93b1 68bd
00000350: a570 a1bc 1dcf 583c 1986 09bd bbc6 84bd
00000360: fe21 85bd f64e dd3b f45b d73d fcad c6bb
00000370: 6226 6bbd 2121 03bc 7cf2 57bd 59b6 27bc
00000380: cb4c b5bc bf2c 223d c849 253d d4c4 333d
00000390: d852 89bd 0b82 a63d 0069 583d a9cf 00be
000003a0: dcd6 563c dd62 cebc 00f6 f13d 6494 86bd
000003b0: ae2f 033c 0e65 073c 99db a8bd 2528 a0bd
000003c0: d404 a83b 7578 9cbd 66fd c1bb b368 843b
000003d0: 4bc6 bebd d71f febc 70e4 5b3c c395 67bd
000003e0: 8759 adbc 662b 2abd 48b5 bd3d f424 253c
000003f0: fb78 033c bf68 bdbd fa8d d93c b692 d63c

L3_convs.0.bias f4 [32]
-0.046467435 -0.028547568 -0.059844323 0.006580959 0.09010117 0.07126927 0.09213866 0.037521675
-0.08337738 0.056858275 -0.096975006 -0.09982983 0.07851908 0.07727173 -0.010911856 0.060516596
-0.0077995397 -0.045974407 -0.097619206 0.030852448 -0.049721185 0.072967626 -0.031814385 -0.025927806
0.024605125 -0.08107863 0.07958678 -0.04709205 0.047490727 0.10547093 0.07820997 -0.0078139
00000000: a354 3ebd 97dc e9bc 521f 75bd 16a5 d73b
00000010: f686 b83d 9ff5 913d 32b3 bc3d 54b0 193d
00000020: c3c1 aabd 39e4 683d d59a c6bd 9573 ccbd
00000030: 9dce a03d a440 9e3d a4c7 32bc 40e0 773d
00000040: 4893 ffbb a94f 3cbd 94ec c7bd 46be fc3c
00000050: 71a8 4bbd 0d70 953d cd4f 02bd 8d66 d4bc
00000060: b090 c93c 8e0c a6bd 65fe a23d 98e3 40bd
00000070: a385 423d 2501 d83d 8c2c a03d df05 00bc

L3_convs.1.weight f4 [32]
0.9553912 0.90859336 0.93713635 0.9385044 0.9391964 0.9224438 0.94002557 0.94700706
0.89182305 0.9244933 0.90447706 0.9301377 0.92526174 0.9073541 0.8849281 0.99967694
0.878456 0.9316021 0.8590919 0.88309455 0.923403 0.8918161 0.9166311 0.9412506
0.92528933 0.85947776 0.92812514 0.9457519 0.9892877 0.9936585 0.864325 0.91546804
00000000: 8594 743f 9399 683f 2be8 6f3f d341 703f
00000010: 2d6f 703f 4725 6c3f 84a5 703f 0e6f 723f
00000020: 844e 643f 98ab 6c3f cf8b 673f 811d 6e3f
00000030: f4dd 6c3f 5c48 683f a68a 623f d4ea 7f3f
00000040: 7ee2 603f 7a7d 6e3f 72ed 5b3f 7c12 623f
00000050: 2464 6c3f 0f4e 643f 56a8 6a3f cdf5 703f
00000060: c3df 6c3f bc06 5c3f 9c99 6d3f cc1c 723f
00000070: f541 7d3f 6760 7e3f 6744 5d3f 1d5c 6a3f

L3_convs.1.bias f4 [32]
-0.04194742 -0.027842296 -0.039639793 -0.049562443 -0.013210274 -0.033772 0.0123187555 0.0017568871
-0.04062237 -0.045528963 -0.027670942 -0.0071675335 0.026600776 -0.06272348 -0.04211519 -0.013738711
-0.047656212 -0.011842232 -0.042847496 -0.043879185 -0.021197371 -0.018236259 -0.0019039446 0.027827578
-0.03835967 -0.076736756 -0.07322134 -0.007087707 -0.025487807 -0.025782606 -0.07651185 0.003776707
00000000: 0fd1 2bbd 8715 e4bc 565d 22bd fd01 4bbd
00000010: e86f 58bc 8254 0abd 9bd4 493c 5947 e63a
00000020: a463 26bd 947c 3abd 2cae e2bc a1dd eabb
00000030: dfe9 d93c 2b75 80bd fa80 2cbd 5518 61bc
00000040: 2933 43bd ec05 42bc db80 2fbd a9ba 33bd
00000050: 1ca6 adbc 3564 95bc c88d f9ba a9f6 e33c
00000060: 081f 1dbd 2928 9dbd 12f5 95bd ff3f e8bb
00000070: cecb d0bc 0b36 d3bc 3fb2 9cbd a182 773b

L3_convs.1.running_mean f4 [32]
-0.09293029 0.035551563 -0.18078728 -0.08909286 -0.02530138 -0.026649674 0.20483598 -0.10412138
-0.02100462 0.0017337657 -0.16277163 0.009587641 -0.0667883 -0.031277873 -0.04932261 0.012705463
-0.025338484 -0.16022603 0.15273817 0.11071676 -0.12827022 0.099388115 -0.17835581 -0.1581943
0.024618922 0.06493035 0.16608815 0.08737198 -0.041986816 -0.023118436 0.16101405 -0.092574835
00000000: 3c52 bebd 849e 113d 4d20 39be 5176 b6bd
00000010: d744 cfbc 6b50 dabc 86c0 513e 973d d5bd
00000020: e111 acbc 863f e33a 9bad 26be 7b15 1d3c
00000030: 4ec8 88bd 3a1d 00bd 8106 4abd 932a 503c
00000040: a792 cfbc 4b12 24be 6567 1c3e 78bf e23d
00000050: 4559 03be ff8b cb3d e8a2 36be b0fd 21be
00000060: 9fad c93c 34fa 843d 0313 2a3e 15f0 b23d
00000070: 5efa 2bbd e062 bdbc dee0 243e e097 bdbd

L3_convs.1.running_var f4 [32]
0.030393485 0.05602594 0.034265045 0.035467897 0.070760876 0.05624439 0.076641046 0.07365567
0.029397631 0.050408598 0.04330492 0.053923406 0.054268412 0.0333904 0.03520665 0.031880554
0.027913261 0.039049845 0.12304642 0.027655432 0.08903311 0.05445322 0.04916184 0.04676021
0.023500666 0.066846184 0.03674804 0.03895095 0.022134531 0.04837857 0.033050604 0.05288852
00000000: c2fb f83c 757b 653d 8159 0c3d c946 113d
00000010: 14eb 903d 8460 663d fbf5 9c3d c9d8 963d
00000020: 4dd3 f03c 3f79 4e3d 8060 313d cade 5c3d
00000030: 8e48 5e3d 5fc4 083d d934 103d 2f95 023d
00000040: 5aaa e43c bbf2 1f3d c3ff fb3d a58d e23c
00000050: fe56 b63d 570a 5f3d ed5d 493d a287 3f3d
00000060: 7884 c03c a7e6 883d 1d85 163d 088b 1f3d
00000070: 7a53 b53c 9b28 463d 1260 073d a2a1 583d

L3_convs.3.rnn_cell.g_exc_x.weight f4 [32, 32, 1, 1]
-0.07441228 -0.0499838 0.054422643 0.015686102 -0.010333253 -0.040160656 0.014297547 -0.16231531
0.09324981 -0.09447054 -0.031182734 -0.07594197 -0.1597244 0.053411517 0.012091219 0.09068026
-0.13820802 -0.055970855 0.14778464 0.07860322 0.06820462 -0.120559365 -0.05145066 0.038060874
-0.08380278 -0.050430913 -0.08535075 -0.056805495 -0.06478877 -0.06277281 0.03235423 0.10407445
-0.10391866 0.11681753 -0.0025886395 0.07909554 -0.09244167 -0.10276422 -0.05288704 0.11480966
-0.0942505 -0.028673587 -0.0015644172 0.046195094 -0.03290807 0.11722193 -0.07556074 0.08139828
-0.11203735 -0.029709212 0.09570862 0.01701484 0.036390644 0.11714004 0.08928503 0.07489005
-0.083843715 -0.033556845 -0.0557505 -0.018067814 0.10328997 -0.032324445 0.11794844 0.017996008
0.11401481 0.0986703 0.07477095 -0.16098861 -0.011678934 0.10836092 0.12739621 -0.07415423
-0.13428266 0.034098074 -0.011421206 0.020171082 0.048049066 -0.026038067 -0.06011689 0.05718774
-0.040357616 -0.1341463 0.096779235 0.1525395 0.080295525 0.036205005 -0.11840959 -0.13347748
0.11610267 0.037799112 0.06928611 0.0062410403 0.13436027 -0.102958545 -0.17947155 -0.09868644
0.11205456 0.008821902 0.054650363 0.064857855 -0.13406989 0.1272539 0.038194027 0.107988395
0.049211133 0.032450594 -0.10874744 0.106777795 -0.07799767 0.096285865 -0.015246696 -0.07683384
-0.0011120152 -0.029265177 -0.092495725 0.12601867 0.15623666 -0.047932547 0.036336392 -0.0651533
0.1078148 -0.06599866 0.07728978 0.14872047 -0.06761957 0.091653354 0.015511136 -0.054072354
0.13179918 0.082849175 0.13718064 0.10302123 0.025259407 0.118793815 -0.06644538 0.102889314
0.0017004611 -0.043176033 0.09688756 8.7868306e-05 -0.0051222607 -0.042957734 0.13891882 -0.08659786
-0.010952383 0.039772227 -0.05687854 -0.07854022 0.06594234 -0.095221005 -0.09709236 -0.13089193
0.06219095 0.081973605 0.07201005 0.07244551 -0.17852983 0.048704177 0.083371654 -0.1377209
-0.12306449 0.20333374 -0.045488253 0.01704528 0.11258963 0.06150481 -0.03387366 0.029123778
-0.034909643 0.0041872235 0.03726905 -0.07733256 -0.1686068 0.016529774 -0.1345874 -0.101413146
0.10780164 -0.017692376 0.05317732 -0.065662906 -0.01273326 0.1363826 0.11179417 0.029617084
-0.020501735 -0.080440626 -0.14392771 0.18310282 0.15552779 -0.1483528 -0.12635694 -0.08838431
0.1674946 0.1986206 0.118129075 -0.030176645 -0.036879823 -0.028973807 0.12407689 -0.16717574
0.04230742 0.07607375 -0.016359793 -0.08392773 -0.12901849 0.011106295 0.05373896 0.029767202
-0.055819094 0.01438469 0.049728625 0.12042606 0.08977166 -0.069187574 -0.0888931 0.05736209
-0.10223763 -0.072963454 -0.051958863 0.12437852 -0.10265582 0.017635161 0.07866157 -0.021921625
-0.057026334 -0.14784102 0.008328984 -0.06426682 0.15160516 -0.10819724 0.078663334 -0.018711045
-0.035606753 -0.043729685 0.006948884 0.050952934 -0.14027403 -0.13606584 0.08655085 -0.12338942
-0.11122101 0.13553588 0.1483351 -0.09953043 0.07864936 -0.046539266 -0.13189748 -0.09551282
-0.11429304 0.13934474 0.0019691864 -0.12813488 0.14250031 0.15219276 0.057367 -0.13452737
00000000: 7765 98bd d0bb 4cbd 47ea 5e3d 2480 803c
00000010: ce4c 29bc 807f 24bd 4240 6a3c fc35 26be
00000020: c2f9 be3d c579 c1bd ef72 ffbc 7787 9bbd
00000030: cb8e 23be 09c6 5a3d 401a 463c 92b6 b93d
00000040: 6786 0dbe b241 65bd db54 173e bafa a03d
00000050: ddae 8b3d d4e7 f6bd edbd 52bd b8e5 1b3d
00000060: cba0 abbd a590 4ebd 60cc aebd e1ac 68bd
00000070: faaf 84bd 088f 80bd de85 043d fc24 d53d
00000080: 4ed3 d4bd 073e ef3d 2aa6 29bb d8fc a13d
00000090: 0f52 bdbd 0c76 d2bd 15a0 58bd 5421 eb3d
000000a0: 6806 c1bd dfe4 eabc 210d cdba 1137 3d3d
000000b0: 9dca 06bd 0d12 f03d 97bf 9abd 24b4 a63d
000000c0: d773 e5bd bc60 f3bc e202 c43d b562 8b3c
000000d0: 5b0e 153d 1ee7 ef3d 12db b63d f45f 993d
000000e0: 41b6 abbd e772 09bd a35a 64bd f402 94bc
000000f0: b189 d33d a366 04bd f48e f13d 5d6c 933c
00000100: 9980 e93d a713 ca3d 8321 993d 33da 24be
00000110: 0059 3fbc 54ec dd3d 2774 023e 2cde 97bd
00000120: 6581 09be 6caa 0b3d 0320 3bbc d33d a53c
00000130: 19cf 443d c94d d5bc 213d 76bd b13d 6a3d
00000140: 074e 25bd a65d 09be 3134 c63d 5133 1c3e
00000150: fb71 a43d b34b 143d ba80 f2bd 52ae 08be
00000160: 3dc7 ed3d 3ed3 1a3d e0e5 8d3d a481 cc3b
00000170: bd95 093e eedb d2bd 64c7 37be 1e1c cabd
00000180: dc7c e53d bd89 103c 0fd9 5f3d 32d4 843d
00000190: 9e49 09be d94e 023e 5771 1c3d 0529 dd3d
000001a0: 9d91 493d eaea 043d fab6 debd 51ae da3d
000001b0: 3ebd 9fbd 8631 c53d 47cd 79bc 0f5b 9dbd
000001c0: 0ac1 91ba 86bd efbc 666e bdbd 0a0b 013e
000001d0: 81fc 1f3e eb54 44bd 78d5 143d 186f 85bd
000001e0: 02ce dc3d 4e2a 87bd 1b4a 9e3d 2e4a 183e
000001f0: 217c 8abd c1b4 bb3d 6b22 7e3c f97a 5dbd
00000200: 5df6 063e d4ac a93d 1579 0c3e cbfc d23d
00000210: d1ec ce3c 2c4a f33d 8414 88bd a2b7 d23d
00000220: 02e2 de3a 5ad9 30bd fc6c c63d f045 b838
00000230: a3d8 a7bb 73f4 2fbd bc40 0e3e 385a b1bd
00000240: a071 33bc 34e8 223d 79f9 68bd b2d9 a0bd
00000250: c70c 873d 3b03 c3bd 5cd8 c6bd 8908 06be
00000260: f0bb 7e3d c7e1 a73d 017a 933d 505e 943d
00000270: 86d0 36be 087e 473d c2be aa3d b506 0dbe
00000280: 3c09 fcbd b836 503e e451 3abd 8ba2 8b3c
00000290: 6495 e63d 78ec 7b3d 1bbf 0abd fd94 ee3c
000002a0: 6afd 0ebd fa34 893b 6ea7 183d 8960 9ebd
000002b0: 43a7 2cbe 7369 873c 48d1 09be b2b1 cfbd
000002c0: 1bc7 dc3d 9aef 90bc 76d0 593d 467a 86bd
000002d0: 2a9f 50bc e1a7 0b3e 58f4 e43d 879f f23c
000002e0: 41f3 a7bc 0ebe a4bd c961 13be 4e7f 3b3e
000002f0: ad42 1f3e cce9 17be b763 01be d502 b5bd
00000300: b483 2b3e 3363 4b3e a8ed f13d 0335 f7bc
00000310: 4c0f 17bd 7a5a edbc 061c fe3d 1e30 2bbe
00000320: 8c4a 2d3d 8ecc 9b3d f904 86bc 4de2 abbd
00000330: 6c1d 04be 2df7 353c 621d 5c3d 59da f33c
00000340: 90a2 64bd c3ad 6b3c 3eb0 4b3d f0a1 f63d
00000350: 34da b73d 37b2 8dbd 960d b6bd 83f4 6a3d
00000360: f661 d1bd dd6d 95bd d1d2 54bd 2aba fe3d
00000370: 373d d2bd 9d77 903c 5119 a13d fb94 b3bc
00000380: 7294 69bd a363 17be 4a76 083c 539e 83bd
00000390: 623e 1b3e 8496 ddbd 3e1a a13d e847 99bc
000003a0: 63d8 11bd e61d 33bd 77b3 e33b 06b4 503d
000003b0: ffa3 0fbe d854 0bbe 9241 b13d 98b3 fcbd
000003c0: d7c7 e3bd ebc9 0a3e 28e5 173e 9cd6 cbbd
000003d0: ea12 a13d f59f 3ebd 2210 07be 3a9c c3bd
000003e0: 7812 eabd 63b0 0e3e 770d 013b ca35 03be
000003f0: 9aeb 113e 6bd8 1b3e a9f9 6a3d 8bc1 09be

L3_convs.3.rnn_cell.g_exc_x.bias f4 [32]
0.041418757 0.005313946 -0.077157915 0.0584359 -0.015394341 -0.041383833 0.026268851 0.11265925
0.11727567 -0.13661568 -0.034828097 -0.041596144 0.07030757 -0.0865199 0.051145602 -0.07623047
0.005642864 -0.08388588 -0.06277731 -0.09253354 0.03270048 0.14800051 -0.045945644 0.014851459
-0.13426049 0.08493132 -0.025589721 0.09307895 -0.041871224 -0.14629662 -0.1014236 0.019788414
00000000: b7a6 293d 9c20 ae3b f804 9ebd 7b5a 6f3d
00000010: 8c38 7cbc 1882 29bd c631 d73c e5b9 e63d
00000020: 3a2e f03d fbe4 0bbe e8a7 0ebd b860 2abd
00000030: 6afd 8f3d 5831 b1bd 0d7e 513d b81e 9cbd
00000040: c6e7 b83b 5ccc abbd 6491 80bd 3a82 bdbd
00000050: f0f0 053d 728d 173e 8031 3cbd 8953 733c
00000060: 957b 09be 79f0 ad3d 89a1 d1bc 2da0 be3d
00000070: 2981 2bbd c8ce 15be 2db7 cfbd 501b a23c

L3_convs.3.rnn_cell.ln_e_x.weight f4 [32]
0.91578525 0.9099915 0.93608993 0.9376757 0.9222414 0.91654944 0.94024897 0.9145893
0.9577298 0.91924053 0.9425644 0.9273175 0.90700114 0.9157977 0.92264 0.9500403
0.9074094 0.9429383 0.9244344 0.9788538 0.93726313 0.9594652 0.90797734 0.9272367
0.9219086 0.9133055 0.95907015 0.9175952 0.9335151 0.8989586 0.9405267 0.9185814
00000000: e770 6a3f 34f5 683f 97a3 6f3f 840b 703f
00000010: 0318 6c3f fca2 6a3f 28b4 703f 8622 6a3f
00000020: c82d 753f 5953 6b3f e74b 713f ae64 6d3f
00000030: 3a31 683f b871 6a3f 2332 6c3f d735 733f
00000040: fc4b 683f 6864 713f bca7 6c3f 2a96 7a3f
00000050: 7af0 6f3f 839f 753f 3471 683f 625f 6d3f
00000060: 3402 6c3f 64ce 693f 9f85 753f 85e7 6a3f
00000070: d8fa 6e3f 2722 663f 5cc6 703f 2728 6b3f

L3_convs.3.rnn_cell.ln_e_x.bias f4 [32]
0.0069402503 0.033021674 0.010364472 0.030892693 0.018423282 0.025132373 0.038918998 0.01795079
0.032654632 0.02056751 0.025535174 0.04580231 0.021863796 0.016006114 0.01726561 0.030978182
0.034983292 0.017102208 0.0124039035 0.028567936 0.024645254 0.029956017 0.028488487 0.025752869
0.03055021 0.023538416 0.026239052 0.01989468 0.019645784 0.018262964 0.025946971 0.0074848593
00000000: 0a6b e33b bc41 073d bfcf 293c ac12 fd3c
00000010: 6cec 963c 68e2 cd3c 8769 1f3d 890d 933c
00000020: ddc0 053d 327d a83c 242f d13c 349b 3b3d
00000030: b41b b33c 411f 833c 9c70 8d3c f5c5 fd3c
00000040: a44a 0f3d ee19 8c3c be39 4b3c 4e07 ea3c
00000050: d8e4 c93c 5266 f53c b060 e93c aef7 d23c
00000060: 6f44 fa3c a3d3 c03c 48f3 d63c 2bfa a23c
00000070: 32f0 a03c 369c 953c be8e d43c 8d43 f53b

L3_convs.3.rnn_cell.g_exc_e.weight f4 [32, 32, 1, 1]
-0.0067090094 0.1518639 -0.12392023 -0.12017701 0.113955684 0.12206671 0.05100213 -0.0022160164
0.0019753827 0.05311648 0.14844146 -0.11713024 -0.015160485 -0.031674087 0.1336227 0.13191126
-0.054635633 0.10312054 -0.014161907 0.10480932 -0.012788775 -0.11818861 -0.07980154 -0.12616388
-0.086406805 0.06446231 -0.1500998 -0.010574425 -0.06980697 0.049715415 0.024786074 0.10618823
0.04446585 0.01666514 0.021824798 -0.014071755 0.11121919 0.09126905 0.13263 -0.12013324
0.11750148 -0.087454185 -0.08809202 -0.014863236 0.10878622 0.034124065 0.18235953 -0.034781188
0.058561906 0.023359109 0.049641035 -0.0051659355 -0.011348123 0.05577359 0.060959153 0.10475402
0.18502943 0.081130244 -0.011671455 0.18414347 0.111707434 0.0964933 -0.0672839 -0.10401361
-0.018183365 -0.09415137 0.056685254 0.042653758 0.1112529 -0.013124122 0.10981577 -0.09603681
-0.10715499 -0.059589986 -0.094263695 -0.113199 0.12040526 0.108582236 0.06916962 -0.007914536
0.086047865 -0.0024277319 0.08738046 -0.019696595 -0.12978631 0.08398916 -0.079232536 -0.15822354
-0.01851001 0.06830218 -0.04073309 0.08273472 -0.07239122 -0.03164064 -0.1603468 -0.12176402
0.041919596 -0.09879907 0.12497204 0.123963386 0.09674882 0.12768684 -0.09498883 0.06311628
-0.017366301 -0.033453856 -0.092690006 -0.008562348 -0.017547369 -0.08263484 -0.05172711 0.031817872
0.11067975 -0.060778126 0.0012850277 0.058749113 0.079805575 -0.03633042 -0.1263453 0.15946192
0.07375248 -0.076296486 0.12745415 0.11262383 -0.101027116 0.030721134 0.122161865 0.12116544
0.05655334 -0.15503892 -0.07592229 0.15123223 0.20454216 0.089195915 0.054260723 -0.007587733
-0.09663167 -0.057502605 0.113430806 0.095859066 0.034382906 -0.048574388 -0.1102867 -0.029740771
-0.09350005 0.025393682 -0.016634645 -0.10834154 -0.090109095 0.06902158 -0.13040161 -0.10597756
-0.040255614 -0.0036516285 0.13940611 0.023624975 -0.10440451 0.08835632 0.16043466 -0.026731908
0.14861071 0.020496678 0.050111305 0.080285005 0.03687665 -0.038101047 -0.09086636 -0.019919604
-0.045901813 -0.0064586313 -0.055832926 0.0834484 0.09051142 0.0826641 0.026566189 0.083626755
0.053138282 -0.0005956323 -0.12341428 0.03418546 0.1375673 -0.09192691 -0.06495098 0.0052384357
0.15614195 0.099670164 0.11792028 0.018724613 0.058475405 0.113385156 -0.0011657219 0.017274259
0.16603081 -0.08017531 -0.19050038 0.25747928 -0.11726678 0.019713255 0.06419514 -0.108729094
0.1740304 0.008195217 0.030608691 -0.0044925506 -0.13994072 0.11385136 0.055095773 0.078376636
0.10616861 0.04109096 0.018788895 -0.016101176 0.1264588 -0.03346856 -0.1738622 -0.07913827
-0.16558093 -0.1550327 -0.012792938 0.11350076 -0.052410625 -0.06759079 0.1993451 -0.00035647285
0.065309025 0.1119913 0.044520672 -0.085674256 0.1542211 -0.14541368 0.06420888 0.12342253
-0.12421441 -0.14315902 -0.04072746 -0.043028265 -0.068057105 -0.038362447 0.08872332 -0.11270354
0.10030225 -0.06495833 -0.028297937 -0.022410186 -0.04564402 0.037335202 -0.030660916 0.109334305
-0.1131254 -0.10161546 0.0072648367 -0.061887335 0.06712404 0.0074823955 -0.012837747 -0.14777991
00000000: 40d7 dbbb 3682 1b3e e4c9 fdbd 5d1f f6bd
00000010: 9961 e93d 1cfe f93d 9ce7 503d 963a 11bb
00000020: 6c75 013b ab90 593d 0a01 183e fbe1 efbd
00000030: af63 78bc b0bc 01bd 64d4 083e bf13 073e
00000040: 9dc9 5fbd dd30 d33d 5807 68bc 45a6 d63d
00000050: 0388 51bc df0c f2bd fd6e a3bd 1b31 01be
00000060: 0df6 b0bd d104 843d c3b3 19be 5a40 2dbc
00000070: f5f6 8ebd 64a2 4b3d 2a0c cb3c 3779 d93d
00000080: d321 363d 5585 883c ebc9 b23c 388d 66bc
00000090: e3c6 e33d 45eb ba3d 29d0 073e 6b08 f6bd
000000a0: 9ea4 f03d 2e1b b3bd 9769 b4bd ee84 73bc
000000b0: 4fcb de3d adc5 0b3d 75bc 3a3e b876 0ebd
000000c0: 9cde 6f3d 9a5b bf3c 6654 4b3d 0247 a9bb
000000d0: 7aed 39bc d972 643d 4eb0 793d 4789 d63d
000000e0: 5b78 3d3e 9d27 a63d a139 3fbc 1b90 3c3e
000000f0: dec6 e43d 479e c53d 24cc 89bd 1605 d5bd
00000100: 48f5 94bc 6fd2 c0bd cc2e 683d b5b5 2e3d
00000110: 8fd8 e33d 8f06 57bc 17e7 e03d f2ae c4bd
00000120: 1374 dbbd a114 74bd 530d c1bd e1d4 e7bd
00000130: 0897 f63d 5d60 de3d cda8 8d3d f8ab 01bc
00000140: dd39 b03d 951a 1fbb 87f4 b23d c15a a1bc
00000150: b4e6 04be 8202 ac3d ab44 a2bd 5a05 22be
00000160: 4ea2 97bc 03e2 8b3d bed7 26bd d270 a93d
00000170: d941 94bd 9e99 01bd f431 24be 6a5f f9bd
00000180: e2b3 2b3d 2b57 cabd 57f1 ff3d 84e0 fd3d
00000190: 3f24 c63d 57c0 023e 8189 c2bd 1c43 813d
000001a0: c643 8ebc e906 09bd 42d4 bdbd 1749 0cbc
000001b0: 80bf 8fbc 743c a9bd cedf 53bd 7553 023d
000001c0: 11ac e23d 7cf2 78bd 606e a83a e9a2 703d
000001d0: 1b71 a33d 35cf 14bd aa60 01be fc49 233e
000001e0: 8a0b 973d 5541 9cbd 5783 023e 53a7 e63d
000001f0: 4ee7 cebd e3aa fb3c 0030 fa3d 9625 f83d
00000200: 7aa4 673d 86c2 1ebe 257d 9bbd 9fdc 1a3e
00000210: 8073 513e 59ac b63d 7e40 5e3d 85a2 f8bb
00000220: d3e6 c5bd da87 6bbd 694e e83d c251 c43d
00000230: 17d5 0c3d f0f5 46bd fedd e1bd eba2 f3bc
00000240: f47c bfbd 6906 d03c 6145 88bc 2be2 ddbd
00000250: 1e8b b8bd 305b 8d3d 0088 05be c30a d9bd
00000260: 12e3 24bd 2950 6fbb 7ac0 0e3e 2a89 c13c
00000270: 08d2 d5bd 29f4 b43d fc48 243e e0fc dabc
00000280: 682d 183e a6e8 a73c 8341 4d3d 776c a43d
00000290: f80b 173d d80f 1cbd 2418 babd 702e a3bc
000002a0: 8a03 3cbd eda2 d3bb 11b1 64bd ffe6 aa3d
000002b0: 0d5e b93d cc4b a93d 56a1 d93c 8144 ab3d
000002c0: 87a7 593d 3524 1cba a0c0 fcbd 0e06 0c3d
000002d0: 71de 0c3e 2d44 bcbd 0505 85bd 2fa7 ab3b
000002e0: ade3 1f3e df1f cc3d 3080 f13d 5c64 993c
000002f0: e883 6f3d 7a36 e83d 23cb 98ba bf82 8d3c
00000300: fb03 2a3e f432 a4bd 8812 43be 53d4 833e
00000310: 9129 f0bd b17d a13c be78 833d 5cad debd
00000320: 0635 323e 3b45 063c 14bf fa3c 3f36 93bb
00000330: 9f4c 0fbe e72a e93d 1bac 613d ee83 a03d
00000340: ee6e d93d ff4e 283d 2beb 993c 9de6 83bc
00000350: 6a7e 013e 5416 09bd ef08 32be 3f13 a2bd
00000360: 0c8e 29be e4c0 1ebe 7999 51bc 1673 e83d
00000370: 86ac 56bd 0a6d 8abd 1f21 4c3e fae4 bab9
00000380: bdc0 853d b25b e53d 4f5b 363d fc75 afbd
00000390: 23ec 1d3e 53e7 14be f27f 833d f4c4 fc3d
000003a0: 2064 febd 4798 12be d6d1 26bd 683e 30bd
000003b0: 8661 8bbd f121 1dbd 92b4 b53d 1dd1 e6bd
000003c0: 446b cd3d df08 85bd 13d1 e7bc 9195 b7bc
000003d0: 39f5 3abd ccec 183d 9a2c fbbc aaea df3d
000003e0: 4aae e7bd c41b d0bd de0d ee3b 937d 7dbd
000003f0: 5478 893d e22e f53b 6a55 52bc 9e53 17be

L3_convs.3.rnn_cell.g_exc_e.bias f4 [32]
-0.0834902 0.07802199 0.12239928 -0.08271264 0.071376935 -0.108968824 0.14581397 0.008427803
0.002461325 -0.017745597 -0.12373021 -0.07657907 -0.0130086485 0.121435404 -0.12833811 -0.03714458
0.14707094 -0.01372265 -0.09874887 -0.12803186 -0.1411431 -0.10743392 -0.12877661 0.099619985
0.035238195 -0.1470689 -0.07751511 0.048202775 0.10542006 -0.14061679 -0.042278018 -0.03581447
00000000: e9fc aabd fec9 9f3d 79ac fa3d 3f65 a9bd
00000010: 122e 923d 0c2b dfbd 4250 153e c514 0a3c
00000020: 2e4e 213b 375f 91bc 4466 fdbd 7dd5 9cbd
00000030: 3a22 55bc 20b3 f83d 116b 03be ea24 18bd
00000040: c499 163e f7d4 60bc d93c cabd c91a 03be
00000050: d187 10be 5106 dcbd 04de 03be 9005 cc3d
00000060: ed55 103d 3b99 16be 3ec0 9ebd 4670 453d
00000070: 79e6 d73d d9fd 0fbe b72b 2dbd 32b2 12bd

L3_convs.3.rnn_cell.ln_e_e.weight f4 [32]
0.91866535 0.9741134 0.9058209 0.9419827 0.93294954 0.91385233 0.98363745 0.91731036
0.9577575 0.9339627 0.9493498 0.98188865 0.9361491 0.9243081 0.9442029 0.99038595
0.9619158 0.92202854 0.9612527 0.9232145 0.9401832 0.9336294 0.9352439 0.9665974
0.92734474 0.94906795 0.9782145 0.95086586 0.927597 0.9263525 0.9478726 0.9209972
00000000: a72d 6b3f 7f5f 793f e1e3 673f c725 713f
00000010: c8d5 6e3f 3af2 693f aacf 7b3f dad4 6a3f
00000020: 982f 753f 2e18 6f3f 9708 733f 0e5d 7b3f
00000030: 78a7 6f3f 759f 6c3f 48b7 713f ef89 7d3f
00000040: 1d40 763f 100a 6c3f a814 763f c957 6c3f
00000050: d9af 703f 5602 6f3f 256c 6f3f ed72 773f
00000060: 7766 6d3f 1ef6 723f 446c 7a3f f26b 733f
00000070: ff76 6d3f 7025 6d3f c7a7 723f 79c6 6b3f

L3_convs.3.rnn_cell.ln_e_e.bias f4 [32]
0.0069402503 0.033021674 0.010364472 0.030892693 0.018423282 0.025132373 0.038918998 0.01795079
0.032654632 0.02056751 0.025535174 0.04580231 0.021863796 0.016006114 0.01726561 0.030978182
0.034983292 0.017102208 0.0124039035 0.028567936 0.024645254 0.029956017 0.028488487 0.025752869
0.03055021 0.023538416 0.026239052 0.01989468 0.019645784 0.018262964 0.025946971 0.0074848593
00000000: 0a6b e33b bc41 073d bfcf 293c ac12 fd3c
00000010: 6cec 963c 68e2 cd3c 8769 1f3d 890d 933c
00000020: ddc0 053d 327d a83c 242f d13c 349b 3b3d
00000030: b41b b33c 411f 833c 9c70 8d3c f5c5 fd3c
00000040: a44a 0f3d ee19 8c3c be39 4b3c 4e07 ea3c
00000050: d8e4 c93c 5266 f53c b060 e93c aef7 d23c
00000060: 6f44 fa3c a3d3 c03c 48f3 d63c 2bfa a23c
00000070: 32f0 a03c 369c 953c be8e d43c 8d43 f53b

L3_convs.3.rnn_cell.g_inh_x.weight f4 [32, 32, 1, 1]
0.13251807 -0.062472567 -0.048493255 0.05044027 0.14660345 0.11937108 0.13244648 0.12610172
0.15005957 0.018432789 -0.06164435 -0.12264063 -0.020541102 0.14202529 -0.13141005 0.0072470037
0.05609471 -0.06609811 -0.029612403 0.09554324 -0.12524718 -0.07265601 0.14593393 -0.14249603
-0.08773002 -0.14696532 0.069366924 0.08468774 0.112269886 0.06990482 0.033829976 0.08510425
-0.1305823 0.119091004 0.061834 0.03574075 0.069864154 -0.008129841 0.12835215 0.15365848
-0.09038801 0.08305344 0.15664148 0.117059454 0.1434986 -0.11571587 -0.06849289 0.09181146
-0.09959644 -0.004073665 0.08009987 -0.048685838 0.14650993 -0.014359144 0.13370955 -0.032064676
0.14303803 0.095579244 -0.060156174 0.11655614 -0.17055 0.15516976 -0.17255865 -0.00431416
-0.017603658 0.1555936 0.030817889 0.061855447 0.14903452 0.15408833 0.14176835 -0.003999989
0.07783792 0.0960945 -0.012521337 0.14122975 0.14257506 -0.065423094 -0.120577686 -0.033353865
0.11916277 -0.1278415 0.0038805718 0.12516016 0.09773636 -0.09078245 -0.07143483 0.10260755
0.14089744 -0.024850091 0.1579201 0.07608069 -0.14635526 -0.14300859 0.13891144 -0.12601227
0.015194557 -0.06598691 0.07600773 0.058602523 -0.06866717 0.08642719 0.13831593 0.13501422
-0.031086884 0.059821613 -0.07480473 -0.10133193 0.14595044 -0.096135475 0.005801446 -0.11242031
0.14452785 0.009909388 0.12046595 -0.08190089 0.06755764 0.045874443 -0.071245246 0.079859026
-0.09096781 0.06562267 0.104854725 -0.13102478 -0.10953392 -0.08199082 -0.0072008264 -0.016847452
0.15570411 -0.08461937 -0.105521746 0.08403177 0.14679874 0.1254171 -0.1419686 0.055653483
0.010693155 -0.12792248 0.09528455 0.09456776 -0.048548378 0.020873947 0.049732894 0.005471654
0.0626025 0.14937982 0.10299333 -0.13395269 -0.058611684 0.15368412 0.13125224 -0.06539175
-0.048277307 0.098326616 0.04981378 -0.11539774 0.097402565 0.06760496 0.08045829 0.008977584
0.052445855 -0.120354384 -0.1443316 0.17567614 0.016834311 0.05182661 0.09911949 -0.048001457
-0.026438108 -0.050912112 -0.016323209 0.12853767 0.11900581 -0.024167385 -0.07395401 -0.06962937
0.099586315 -0.0800482 -0.037615806 0.07519296 0.11997247 0.1222788 -0.034011677 -0.12391912
-0.14604999 0.052133746 -0.15312563 -0.080812685 0.04492967 -0.03902637 -0.0015873653 0.107144475
0.06277192 0.06808002 0.1326157 0.06125242 0.090793125 -0.14288297 0.15149687 -0.019822774
-0.092999205 -0.0051759267 -0.043360237 0.13058981 -0.019359015 0.09098608 -0.05051307 0.15470928
0.06533059 0.122692004 0.031491503 -0.0051577836 0.09173481 -0.08691336 -0.060363155 0.13470891
0.04189059 -0.026582126 -0.14126362 0.14267868 -0.16220503 -0.014335638 0.11388174 0.119972885
-0.12007185 0.0854134 -0.14131147 -0.14722784 -0.067750454 -0.025735348 -0.017344896 0.013760551
0.010821391 -0.105263874 0.04622132 -0.07248415 0.045024417 -0.15427002 0.18128967 -0.105832145
0.07355395 0.14263529 -0.078227945 0.045157325 0.05636055 0.055878904 -0.060665395 0.11001169
-0.072897725 0.15966997 0.058701653 0.20248142 -0.09786544 0.08508344 -0.045127485 -0.15431266
00000000: d1b2 073e 3ce3 7fbd dda0 46bd 759a 4e3d
00000010: 371f 163e d378 f43d 0da0 073e cf20 013e
00000020: 37a9 193e 5c00 973c c97e 7cbd 032b fbbd
00000030: d045 a8bc 146f 113e 5b90 06be 4678 ed3b
00000040: 91c3 653d 725e 87bd b695 f2bc 2dac c33d
00000050: cc40 00be adcc 94bd b46f 153e 7bea 11be
00000060: ccab b3bd 147e 16be 3f10 8e3d c470 ad3d
00000070: c1ed e53d 422a 8f3d 4d91 0a3d 234b ae3d
00000080: 5eb7 05be fce5 f33d a645 7d3d e564 123d
00000090: f014 8f3d 0633 05bc bf6e 033e a658 1d3e
000000a0: 591d b9bd ec17 aa3d a066 203e debc ef3d
000000b0: 4cf1 123e 71fc ecbd 0046 8cbd a607 bc3d
000000c0: 38f9 cbbd 617c 85bb 670b a43d cd6a 47bd
000000d0: b306 163e 9d42 6bbc 28eb 083e 4056 03bd
000000e0: 9078 123e 0dbf c33d 5266 76bd fcb4 ee3d
000000f0: a9a4 2ebe d2e4 1e3e 37b3 30be cc5d 8dbb
00000100: 8c35 90bc ee53 1f3e cc75 fc3c 235c 7d3d
00000110: 819c 183e 55c9 1d3e b92b 113e 5712 83bb
00000120: 7d69 9f3d 31cd c43d 4b26 4dbc 889e 103e
00000130: 32ff 113e 8bfc 85bd 6ff1 f6bd 109e 08bd
00000140: 9c0b f43d e2e8 02be 3151 7e3b fc29 003e
00000150: 002a c83d 26ec b9bd 6d4c 92bd e823 d23d
00000160: 6b47 103e 6b92 cbbc cfb5 213e 31d0 9b3d
00000170: 27de 15be d870 12be cd3e 0e3e 5c09 01be
00000180: 97f2 783c 2524 87bd f1a9 9b3d 3309 703d
00000190: 60a1 8cbd bd00 b13d b1a2 0d3e 2b41 0a3e
000001a0: eca9 febc 8207 753d 3933 99bd 1d87 cfbd
000001b0: 0874 153e ade2 c4bd 0e1a be3b 9f3c e6bd
000001c0: 1cff 133e fc5a 223c dab6 f63d a7bb a7bd
000001d0: a95b 8a3d d7e6 3b3d 07e9 91bd 218d a33d
000001e0: 554d babd 2e65 863d 13be d63d 5c2b 06be
000001f0: 5253 e0bd ceea a7bd e9f4 ebbb ab03 8abc
00000200: e670 1f3e ec4c adbd c91b d8bd d918 ac3d
00000210: 6952 163e 576d 003e 3760 11be e8f4 633d
00000220: 5832 2f3c 1cfe 02be 8c24 c33d beac c13d
00000230: aada 46bd d7ff aa3c b8b4 4b3d 8f4b b33b
00000240: bd35 803d 06f7 183e 2bee d23d e52a 09be
00000250: ce12 70bd 5f5f 1d3e fd66 063e 1cec 85bd
00000260: 6dbe 45bd 775f c93d 8909 4c3d a655 ecbd
00000270: ff7a c73d 7874 8a3d 51c7 a43d b716 133c
00000280: 77d1 563d 5c7c f6bd aacb 13be 72e4 333e
00000290: 1ce8 893c 2448 543d 29ff ca3d 2d9d 44bd
000002a0: bb94 d8bc 3889 50bd 40b8 85bc 619f 033e
000002b0: 51b9 f33d aefa c5bc 3375 97bd d899 8ebd
000002c0: e9f3 cb3d 50f0 a3bd 0813 1abd c4fe 993d
000002d0: 20b4 f53d 4f6d fa3d d44f 0bbd 4fc9 fdbd
000002e0: 218e 15be 328a 553d f7cc 1cbe 1f81 a5bd
000002f0: 2c08 383d 1dda 1fbd 240f d0ba 906e db3d
00000300: 908e 803d 8a6d 8b3d 69cc 073e d1e3 7a3d
00000310: bff1 b93d ea4f 12be ff21 1b3e 5f63 a2bc
00000320: 5e76 bebd d29a a9bb 819a 31bd 56b9 053e
00000330: cc96 9ebc e956 ba3d cbe6 4ebd 1c6c 1e3e
00000340: 0bcc 853d f245 fb3d 3cfd 003d a002 a9bb
00000350: 76df bb3d a2ff b1bd 5b3f 77bd 22f1 093e
00000360: 7895 2b3d c2c2 d9bc 69a7 10be 5c1a 123e
00000370: 1319 26be 06e0 6abc d43a e93d 58b4 f53d
00000380: 3be8 f5bd 38ed ae3d f4b3 10be e5c2 16be
00000390: c0c0 8abd f0d2 d2bc e216 8ebc ef73 613c
000003a0: 344c 313c 9694 d7bd 9152 3d3d 9272 94bd
000003b0: 866b 383d f6f8 1dbe 00a4 393e 86be d8bd
000003c0: 74a3 963d fc0e 123e f935 a0bd e3f6 383d
000003d0: 52da 663d 47e1 643d 477c 78bd cf4d e13d
000003e0: 674b 95bd 8680 233e 2571 703d 4a57 4f3e
000003f0: ad6d c8bd 3a40 ae3d 99d7 38bd 2304 1ebe

L3_convs.3.rnn_cell.g_inh_x.bias f4 [32]
-0.06144845 0.09319722 0.14237791 0.0074978685 -0.12747774 0.15447927 -0.03636085 -0.012875488
0.096400544 -0.10675264 -0.1264172 0.10626286 -0.0024566853 0.048465926 -0.066375 -0.113990426
0.14897782 0.015173272 0.11708033 -0.13465159 0.011388284 -0.04544947 -0.048532 -0.085143745
0.098348334 0.10219853 0.051038567 0.060501628 0.12534258 -0.13608672 0.050016847 -0.025830649
00000000: 5fb1 7bbd 2fde be3d 84cb 113e aeb0 f53b
00000010: 8689 02be d02f 1e3e 1def 14bd b6f3 52bc
00000020: a66d c53d 21a1 dabd 8373 01be 58a0 d93d
00000030: 5700 21bb 3584 463d 9eef 87bd d073 e9bd
00000040: a48d 183e 5199 783c d0c7 ef3d 1be2 09be
00000050: ed95 3a3c 3929 3abd 7ec9 46bd d85f aebd
00000060: da6a c93d 774d d13d d10d 513d 8ed0 773d
00000070: ce59 003e 515a 0bbe 77de 4c3d cc9a d3bc

L3_convs.3.rnn_cell.ln_i_x.weight f4 [32]
0.9269946 0.93053466 0.9567935 0.9216646 0.9224231 0.9143775 0.9299887 0.9112901
0.9224165 0.9234965 0.92587954 0.9299744 0.9282569 0.92138463 0.91996336 0.9208799
0.93773174 0.918701 0.9269811 0.9293737 0.9268017 0.9172935 0.9235953 0.9204109
0.93633676 0.92602986 0.9070686 0.9341785 0.93228716 0.9303397 0.9134952 0.932937
00000000: 854f 6d3f 8537 6e3f 6bf0 743f 36f2 6b3f
00000010: ec23 6c3f a514 6a3f bd13 6e3f 4f4a 693f
00000020: 7d23 6c3f 446a 6c3f 7106 6d3f cd12 6e3f
00000030: 3fa2 6d3f dddf 6b3f b882 6b3f c9be 6b3f
00000040: 300f 703f fd2f 6b3f a24e 6d3f 6feb 6d3f
00000050: e042 6d3f bfd3 6a3f be70 6c3f 0ca0 6b3f
00000060: c4b3 6f3f 4b10 6d3f a635 683f 5226 6f3f
00000070: 5faa 6e3f be2a 6e3f d2da 693f f6d4 6e3f

L3_convs.3.rnn_cell.ln_i_x.bias f4 [32]
0.004574229 0.00071956404 0.01311849 0.0034076674 0.0074489275 0.008124491 0.013092035 0.02017708
0.007118822 0.005474143 0.0061597317 0.008850213 0.004390849 0.006572597 0.005922816 0.009924269
0.0053930557 0.012902193 0.0057131513 0.010211052 0.00580234 0.007106348 -4.7978556e-05 0.0070782164
0.007322308 0.0031307489 0.007343042 0.0025074845 0.01351741 0.012177156 0.0063872547 0.009405812
00000000: 6ae3 953b 20a1 3c3a efee 563c 2c53 5f3b
00000010: 2216 f43b 961c 053c fa7f 563c 674a a53c
00000020: 0245 e93b 7160 b33b 93d7 c93b 7c00 113c
00000030: 1ce1 8f3b f15e d73b 2f14 c23b 6799 223c
00000040: 3bb8 b03b b863 533c 6335 bb3b 424c 273c
00000050: 8e21 be3b 5edc e83b 953c 49b8 62f0 e73b
00000060: f9ef ef3b 402d 4d3b e79d f03b 9c54 243b
00000070: 2078 5d3c b282 473c 2d4c d13b d61a 1a3c

L3_convs.3.rnn_cell.g_inh_i.weight f4 [32, 32, 1, 1]
0.01589467 -0.11172102 -0.11842827 0.094764434 0.08401852 -0.008656502 -0.0023167832 -0.12721097
-0.041176345 -0.049468406 -0.10910769 -0.037637983 0.12756485 -0.06494448 0.024415528 0.0124711
0.08903206 -0.015299171 0.053813852 0.120534174 0.0847961 0.14712524 0.011679641 -0.14861238
0.13055484 0.055432953 -0.07827724 -0.119516045 0.0785913 -0.032067325 -0.13159335 0.14602828
0.14733487 0.046524335 0.1248131 0.14180993 0.06647319 -0.071668625 0.08987816 0.11130221
0.13446897 0.044440757 -0.049684606 -0.059952445 -0.15262356 0.13656066 -0.04753753 0.10738404
0.0475987 0.018975213 0.11458109 0.008501101 -0.055177607 0.0107681025 -0.035265103 0.11059657
-0.07867753 0.090924196 0.015936282 -0.04490176 0.10142542 0.10350542 -0.06274888 0.14405389
-0.10609162 0.013214571 -0.10249961 0.06872879 0.030390706 0.11302225 -0.03043003 -0.14161323
-0.0056207343 0.13214113 0.018190779 -0.009930715 0.03870349 -0.0796335 0.022286536 -0.08847305
0.104950726 0.07409737 -0.04665506 -0.07046868 -0.16005781 0.07210324 0.06361648 -0.04400549
0.041016497 0.09919548 -0.13439783 -0.05424333 -0.06860459 0.0921008 0.0021422452 0.009820896
0.044144846 0.13051125 -0.004387526 0.10330452 -0.16314283 0.023065632 -0.044208206 -0.067697085
0.058817163 -0.13976853 0.10546768 0.15659408 0.1069868 0.12954932 0.06200202 -0.10728739
-0.0027046674 0.11885249 -0.047927372 0.14139749 0.08488782 -0.07760457 -0.08944826 0.0028601096
0.05720973 0.15269038 0.10475584 -0.023411945 0.08558128 0.0024524524 -0.15953217 0.06504803
0.04328868 -0.09229324 -0.026254373 0.08999916 -0.08420124 0.13409388 0.13155068 0.06957208
0.023007216 0.08327359 -0.0051121507 0.12882653 -0.045069862 0.027147297 0.0018452954 0.10186924
0.04920502 0.06203574 -0.016817302 0.08054411 -0.039737504 -0.013443542 -0.15667948 0.03272562
-0.030545643 0.07855104 0.007234901 0.11688676 0.08247665 -0.052061506 0.008641853 -0.0867649
0.045778994 -0.08014793 -0.13775432 -0.16384453 -0.08057969 -0.11299032 -0.10575533 0.11752549
0.15419888 -0.1013077 -0.20492367 -0.037131336 -0.040762927 0.12784497 -0.061446942 0.1766764
-0.044294644 0.094906025 0.017262796 -0.109265305 0.010499937 -0.03285088 0.13686724 0.014257591
0.08945234 -0.030135231 0.12335121 -0.058044855 0.14528638 0.12983537 -0.12569624 -0.16834304
-0.08409075 -0.036475036 -0.14509831 0.01321057 0.07880971 -0.009095894 0.12058981 0.05639726
0.09735317 0.012178571 -0.07683691 0.022265326 0.02908144 -0.017046785 -0.15897569 -0.04191024
0.0729533 0.14602649 -0.052304305 0.056127403 0.06165564 -0.11298617 -0.15890303 -0.10663462
0.08743537 0.04166162 0.08773029 -0.11001832 -0.06677684 -0.073500864 -0.077119514 0.116803266
0.0026492032 -0.028942248 0.14263347 -0.0038315253 -0.19235718 0.17682222 -0.09048693 0.105981044
-0.06853448 0.08619669 0.087007694 -0.075074024 -0.115010805 -0.046720285 -0.07117645 0.0046921805
0.17832977 0.02879074 0.15499626 -0.10005984 -0.006727187 0.0775289 -0.10418667 0.08089414
-0.11524402 0.077859476 0.021387924 0.13984638 0.008573822 0.0015472904 -0.1643452 -0.011454588
00000000: 8a35 823c fdcd e4bd 858a f2bd db13 c23d
00000010: e711 ac3d 00d4 0dbc 2cd5 17bb 9843 02be
00000020: 87a8 28bd 629f 4abd da73 dfbd 492a 1abd
00000030: 5ca0 023e 9d01 85bd 1303 c83c 9653 4c3c
00000040: 7156 b63d 60a9 7abc ea6b 5c3d 9fda f63d
00000050: 94a9 ad3d 00a8 163e f75b 3f3c d82d 18be
00000060: 2bb0 053e aa0d 633d d14f a0bd d4c4 f4bd
00000070: 7af4 a03d 0759 03bd 68c0 06be 7088 153e
00000080: f4de 163e 4d90 3e3d 039e ff3d 9f36 113e
00000090: 1923 883d 00c7 92bd 0a12 b83d 6af2 e33d
000000a0: 3cb2 093e 8307 363d 1682 4bbd b290 75bd
000000b0: 5a49 1cbe 8fd6 0b3e b7b6 42bd 2aec db3d
000000c0: dbf6 423d e871 9b3c 7ea9 ea3d 3448 0b3c
000000d0: ea01 62bd b26c 303c 2472 10bd 7480 e23d
000000e0: af21 a1bd 7736 ba3d ce8c 823c e8ea 37bd
000000f0: 21b8 cf3d a6fa d33d 7c82 80bd dd82 133e
00000100: 9046 d9bd ee81 583c 51eb d1bd aec1 8c3d
00000110: eef5 f83c 3678 e73d 6648 f9bc 0f03 11be
00000120: 232e b8bb 0150 073e d404 953c 70b4 22bc
00000130: 8d87 1e3d e316 a3bd 4192 b63c 5c31 b5bd
00000140: 68f0 d63d 5dc0 973d 6019 3fbd e251 90bd
00000150: 32e6 23be ddaa 933d 5b49 823d 1a3f 34bd
00000160: ea00 283d 0027 cb3d 969f 09be 412e 5ebd
00000170: 9080 8cbd 589f bc3d e964 0c3b d3e7 203c
00000180: 3ad1 343d bea4 053e 3cc5 8fbb 5291 d33d
00000190: ea0e 27be 23f4 bc3c aa13 35bd c5a4 8abd
000001a0: 44ea 703d 7b1f 0fbe 70ff d73d 335a 203e
000001b0: e51b db3d 94a8 043e d5f5 7d3d 7eb9 dbbd
000001c0: ca40 31bb ef68 f33d 7e4f 44bd 81ca 103e
000001d0: aad9 ad3d 25ef 9ebd a630 b7bd ad70 3b3b
000001e0: c054 6a3d de5a 1c3e 3b8a d63d 68ca bfbc
000001f0: 3d45 af3d 53b9 203b 675c 23be e737 853d
00000200: 794f 313d 3d04 bdbd 6913 d7bc 7b51 b83d
00000210: b371 acbd e84f 093e 39b5 063e cf7b 8e3d
00000220: a179 bc3c 588b aa3d d483 a7bb 1aeb 033e
00000230: 2d9b 38bd 0264 de3c d7dd f13a d2a0 d03d
00000240: 348b 493d 3019 7e3d 70c4 89bc 4ff4 a43d
00000250: cbc3 22bd 4d42 5cbc 9670 20be 4d0b 063d
00000260: db3a fabc 5edf a03d c012 ed3b 5362 ef3d
00000270: 85e9 a83d 723e 55bd 8f96 0d3c ccb1 b1bd
00000280: c182 3b3d 9924 a4bd 780f 0dbe dcc6 27be
00000290: f706 a5bd 7867 e7bd 4096 d8bd 34b1 f03d
000002a0: 50e6 1d3e 697a cfbd 83d7 51be 0717 18bd
000002b0: 07f7 26bd cbe9 023e caaf 7bbd a8ea 343e
000002c0: 4d6e 35bd 175e c23d b56a 8d3c 7dc6 dfbd
000002d0: ee07 2c3c a58e 06bd ed26 0c3e ac98 693c
000002e0: ca32 b73d 29de f6bc 8f9f fc3d 71c0 6dbd
000002f0: f4c5 143e 90f3 043e 84b6 00be 1e62 2cbe
00000300: c537 acbd d966 15bd a794 14be 2671 583c
00000310: fc66 a13d f206 15bc caf7 f63d d000 673d
00000320: 1961 c73d a188 473c ab5c 9dbd c665 b63c
00000330: 333c ee3c b3a5 8bbc 86ca 22be 12aa 2bbd
00000340: 8a68 953d f887 153e 0a3d 56bd d9e5 653d
00000350: a08a 7c3d 4b65 e7bd 7ab7 22be 4063 dabd
00000360: 5111 b33d 60a5 2a3d f0ab b33d 4951 e1bd
00000370: 4cc2 88bd 9f87 96bd d6f0 9dbd 8d36 ef3d
00000380: 419e 2d3b 4b18 edbc 820e 123e 541a 7bbb
00000390: 48f9 44be e210 353e 3651 b9bd 970c d93d
000003a0: ce5b 8cbd e487 b03d 1731 b23d 69c0 99bd
000003b0: c98a ebbd c55d 3fbd f5c4 91bd ddc0 993b
000003c0: 149c 363e 8fda eb3c 57b7 1e3e 2cec ccbd
000003d0: bc6f dcbb 79c7 9e3d d25f d5bd d4ab a53d
000003e0: 0f05 ecbd ca74 9f3d ba35 af3c e433 0f3e
000003f0: 3779 0c3c 73ce ca3a 1c4a 28be 06ac 3bbc

L3_convs.3.rnn_cell.g_inh_i.bias f4 [32]
-0.1227017 0.093428545 -0.09838063 -0.0071740965 0.14566231 -0.03927402 0.005373334 0.09628236
0.010659202 0.12526211 0.06704336 -0.0042653983 -0.003812165 -0.122417405 -0.08846983 -0.12562501
0.022920042 -0.075435735 0.092442565 0.13978335 0.027372705 0.1487107 -0.14546232 -0.035970416
-0.088053934 0.064846195 0.13373539 -0.088417575 0.027458157 0.077846676 -0.15322486 0.16698427
00000000: 074b fbbd 7757 bf3d c97b c9bd af14 ebbb
00000010: 8028 153e cbdd 20bd cb12 b03b b02f c53d
00000020: efa3 2e3c b644 003e 074e 893d c1c4 8bbb
00000030: 84d5 79bb fab5 fabd ac2f b5bd d8a3 00be
00000040: d0c2 bb3c 0d7e 9abd 8752 bd3d 5e23 0f3e
00000050: b93c e03c 9e47 183e 13f4 14be b755 13bd
00000060: 9f55 b4bd 15ce 843d eef1 083e 4614 b5bd
00000070: eeef e03c 146e 9f3d fae6 1cbe edfd 2a3e

L3_convs.3.rnn_cell.ln_i_i.weight f4 [32]
0.91506016 0.9237456 0.92782325 0.9246218 0.92293525 0.9468468 0.9192991 0.9480783
0.935426 0.940593 0.91712165 0.92004114 0.92609644 0.9229875 0.9192352 0.91848356
0.9395762 0.93592227 0.9234059 0.9251526 0.9219565 0.9316777 0.92593443 0.9320027
0.9100705 0.9254145 0.95495725 0.9237215 0.9206673 0.9353357 0.930099 0.9451604
00000000: 6241 6a3f 977a 6c3f d385 6d3f 04b4 6c3f
00000010: 7c45 6c3f 8d64 723f 3057 6b3f 42b5 723f
00000020: 1478 6f3f b4ca 703f 7cc8 6a3f d187 6b3f
00000030: a814 6d3f e948 6c3f 0053 6b3f bd21 6b3f
00000040: 1188 703f 9a98 6f3f 5464 6c3f cdd6 6c3f
00000050: 5705 6c3f 6e82 6e3f 0a0a 6d3f bb97 6e3f
00000060: 61fa 683f f7e7 6c3f 1478 743f 0379 6c3f
00000070: dab0 6b3f 2972 6f3f f81a 6e3f 08f6 713f

L3_convs.3.rnn_cell.ln_i_i.bias f4 [32]
0.004574229 0.00071956404 0.01311849 0.0034076674 0.0074489275 0.008124491 0.013092035 0.02017708
0.007118822 0.005474143 0.0061597317 0.008850213 0.004390849 0.006572597 0.005922816 0.009924269
0.0053930557 0.012902193 0.0057131513 0.010211052 0.00580234 0.007106348 -4.7978556e-05 0.0070782164
0.007322308 0.0031307489 0.007343042 0.0025074845 0.01351741 0.012177156 0.0063872547 0.009405812
00000000: 6ae3 953b 20a1 3c3a efee 563c 2c53 5f3b
00000010: 2216 f43b 961c 053c fa7f 563c 674a a53c
00000020: 0245 e93b 7160 b33b 93d7 c93b 7c00 113c
00000030: 1ce1 8f3b f15e d73b 2f14 c23b 6799 223c
00000040: 3bb8 b03b b863 533c 6335 bb3b 424c 273c
00000050: 8e21 be3b 5edc e83b 953c 49b8 62f0 e73b
00000060: f9ef ef3b 402d 4d3b e79d f03b 9c54 243b
00000070: 2078 5d3c b282 473c 2d4c d13b d61a 1a3c

L3_convs.3.rnn_cell.ln_out_e.weight f4 [32]
0.88565487 1.018288 0.8831081 0.9836887 0.94333196 0.8285545 1.0285282 0.8415197
0.8939657 0.9387882 1.0275527 0.83958197 0.7088084 0.80878514 0.76518726 0.8361782
0.9185514 0.99848175 1.0644791 0.96734864 0.8774587 0.99825555 0.87287855 0.994673
0.9654979 0.90165895 1.0305585 0.9418838 0.9062261 0.91883105 1.0249121 0.8903856
00000000: 47ba 623f 4357 823f 5f13 623f 06d3 7b3f
00000010: 347e 713f 261c 543f d0a6 833f d66d 573f
00000020: f0da 643f 6c54 703f d986 833f d8ee 563f
00000030: 7874 353f 8b0c 4f3f 50e3 433f c60f 563f
00000040: 2f26 6b3f 809c 7f3f da40 883f 29a4 773f
00000050: 22a1 603f ad8d 7f3f f874 5f3f e4a2 7e3f
00000060: df2a 773f 1fd3 663f 57e9 833f 4c1f 713f
00000070: 6ffe 673f 8338 6b3f 5230 833f 50f0 633f

L3_convs.3.rnn_cell.ln_out_e.bias f4 [32]
-0.024325723 -0.0176504 -0.021009369 -0.068030566 -0.010080882 -0.04005778 -0.17166092 -0.03784724
0.017616048 -0.08980331 -0.11671292 -0.09015112 -0.11842302 -0.08878197 -0.0058535743 -0.058448263
0.04801259 -0.026608692 -0.07856953 -0.020531617 -0.036428683 0.0039423355 -0.046947893 -0.0608348
-0.04885082 -0.0595822 0.002354018 0.0032205419 -0.029952582 -0.045802955 0.001363148 -0.02922743
00000000: bd46 c7bc 9297 90bc d71b acbc 9c53 8bbd
00000010: 492a 25bc a013 24bd e1c7 2fbe b505 1bbd
00000020: 884f 903c ccea b7bd 2f07 efbd 27a1 b8bd
00000030: c587 f2bd 52d3 b5bd 57cf bfbb 7267 6fbd
00000040: d9a8 443d 79fa d9bc 10e9 a0bd ec31 a8bc
00000050: 3e36 15bd b52e 813b 6f4c 40bd e92d 79bd
00000060: cc17 48bd 770c 74bd de45 1a3b ba0f 533b
00000070: 1e5f f5bc e19b 3bbd a8ab b23a 5d6e efbc

L3_convs.3.rnn_cell.ln_out_i.weight f4 [32]
0.9421832 0.9681698 0.8841828 0.94611466 0.9310624 0.8304517 0.9440446 0.9488549
0.9408169 0.9092083 0.91610086 0.89158833 0.9240528 0.93200463 0.91575956 0.940057
0.89800453 0.9798126 0.94634366 0.9446241 0.89522237 0.88807774 0.9171232 1.0098197
0.93871266 0.9528381 0.9213216 0.9039559 0.9148882 0.9821277 0.9207592 0.87634695
00000000: eb32 713f fad9 773f ce59 623f 9234 723f
00000010: 1b5a 6e3f 7c98 543f e8ac 713f 28e8 723f
00000020: 60d9 703f e0c1 683f 9685 6a3f 223f 643f
00000030: b98e 6c3f db97 6e3f 386f 6a3f 93a7 703f
00000040: a0e3 653f 00d5 7a3f 9443 723f e3d2 713f
00000050: 4b2d 653f 1059 633f 96c8 6a3f c641 813f
00000060: 794f 703f 33ed 733f bbdb 6b3f a769 673f
00000070: 1d36 6a3f b96c 7b3f e0b6 6b3f 4658 603f

L3_convs.3.rnn_cell.ln_out_i.bias f4 [32]
-0.019935729 -0.002768128 -0.012464912 -0.012316849 -0.017119575 -0.008492139 -0.016523369 -0.027012086
-0.027580397 -0.0063461987 -0.001972466 0.004301911 -0.020805104 -0.014084105 -0.004173801 -0.004429023
-0.032906983 0.014749098 0.0032213677 0.01050733 -0.005394472 -0.023501666 -0.0009875388 0.0016306201
0.01044461 -0.0015103349 -0.0024684286 -0.008021756 -0.031497404 -0.0044384804 -0.004689839 0.028651554
00000000: 4150 a3bc 7b69 35bb a139 4cbc 9ccc 49bc
00000010: 5a3e 8cbc 9d22 0bbc 045c 87bc 7348 ddbc
00000020: 49f0 e1bc c6f3 cfbb 7d44 01bb 0cf7 8c3b
00000030: 776f aabc 05c1 66bc 61c4 88bb 5621 91bb
00000040: 79c9 06bd 33a6 713c 951d 533b f026 2c3c
00000050: 1cc4 b0bb 9186 c0bc 4e70 81ba 88ba d53a
00000060: df1f 2b3c 6ef6 c5ba 5cc5 21bb af6d 03bc
00000070: 6c03 01bd ac70 91bb 39ad 99bb aab6 ea3c

L3_convs.3.rnn_cell.ln_out.weight f4 [32]
1.0 1.0 1.0 1.0 1.0 1.0 1.0 1.0
1.0 1.0 1.0 1.0 1.0 1.0 1.0 1.0
1.0 1.0 1.0 1.0 1.0 1.0 1.0 1.0
1.0 1.0 1.0 1.0 1.0 1.0 1.0 1.0
00000000: 0000 803f 0000 803f 0000 803f 0000 803f
00000010: 0000 803f 0000 803f 0000 803f 0000 803f
00000020: 0000 803f 0000 803f 0000 803f 0000 803f
00000030: 0000 803f 0000 803f 0000 803f 0000 803f
00000040: 0000 803f 0000 803f 0000 803f 0000 803f
00000050: 0000 803f 0000 803f 0000 803f 0000 803f
00000060: 0000 803f 0000 803f 0000 803f 0000 803f
00000070: 0000 803f 0000 803f 0000 803f 0000 803f

L3_convs.3.rnn_cell.ln_out.bias f4 [32]
0.0 0.0 0.0 0.0 0.0 0.0 0.0 0.0
0.0 0.0 0.0 0.0 0.0 0.0 0.0 0.0
0.0 0.0 0.0 0.0 0.0 0.0 0.0 0.0
0.0 0.0 0.0 0.0 0.0 0.0 0.0 0.0
00000000: 0000 0000 0000 0000 0000 0000 0000 0000
00000010: 0000 0000 0000 0000 0000 0000 0000 0000
00000020: 0000 0000 0000 0000 0000 0000 0000 0000
00000030: 0000 0000 0000 0000 0000 0000 0000 0000
00000040: 0000 0000 0000 0000 0000 0000 0000 0000
00000050: 0000 0000 0000 0000 0000 0000 0000 0000
00000060: 0000 0000 0000 0000 0000 0000 0000 0000
00000070: 0000 0000 0000 0000 0000 0000 0000 0000
