results/rs191/pth/3L.pth (torch, 879994 bytes, 54 tensors)

module.L3_convs.0.weight f4 [32, 3, 5, 5]
0.025948577 0.012707735 -0.08560425 -0.049366686 -0.0074243345 -0.007594998 0.021903753 -0.032882273
-0.02123434 -0.04477137 0.0072013307 0.04184931 0.045346297 0.0023328275 -0.03497137 -0.022289569
0.0043887882 -0.09526887 -0.087408654 -0.050311048 -0.06829387 -0.021485223 -0.026562084 0.013922017
-0.06559231 -0.06651109 -0.025870336 0.018486554 -0.013688963 -0.020614939 0.006088169 -0.059497077
0.027119562 0.036627915 0.00966361 0.020498492 -0.041929893 -0.006178952 0.008467856 -0.004926665
0.001532178 0.01807486 -0.010484144 0.0337966 0.036895048 -0.0421594 -0.029273001 0.02290637
0.051041752 0.022669043 0.041581083 0.01644735 -0.016719319 0.05472402 0.053234298 0.029129617
-0.018644147 0.021823598 0.0224938 -0.023767492 0.017744817 -0.045558367 0.03800153 0.0317574
0.035246804 0.048068646 -0.0360321 -0.026938425 -0.018947134 -0.010307866 -0.031595767 -0.009118449
0.041664798 0.004353126 -0.028518384 0.027127236 0.05670814 -0.0654516 0.022140866 0.0039648856
0.051487423 0.0005908603 0.0048227925 -0.04318596 -0.015127497 0.009209222 -0.06847717 -0.05038104
-0.06558422 -0.052123524 0.05563709 -0.048741665 0.026537545 -0.053891715 -0.06483628 0.082465656
0.06905172 0.011276242 -0.00014793492 0.016117174 -0.030607905 -0.036462266 0.0717173 0.062165584
0.06877177 -0.009205084 -0.0065757274 0.023617916 -0.0329282 0.07750527 -0.022536596 0.021530239
-0.03863292 -0.03298514 0.04050753 -0.030992698 -0.032862376 -0.019195743 -0.049826574 0.010406091
-0.0022869196 0.006056483 0.042290654 0.028767407 -0.036121335 0.019070951 0.014213095 -0.001447251
-0.013622832 0.04221736 -0.0014359431 -0.051988654 0.019760737 0.04767128 0.032951903 0.010623701
-0.0011754709 0.0074008787 -0.028715143 0.020176155 0.0077066245 -0.029489696 -0.01903527 -0.015504963
-0.03992598 -0.063765176 -0.0013327126 -0.0529992 0.010306505 -0.0004321688 -0.050420407 -0.03245656
-0.024154726 0.0075942804 -0.08238049 -0.05609705 -0.05603377 -0.008834357 -0.05470802 -0.040038016
-0.0123278 0.050084192 0.047450006 0.009721305 -0.019458452 -0.08032291 0.056969833 0.06843321
-0.07271931 0.03593446 -0.009369272 -0.054901753 -0.038126405 0.0037168756 -0.06993581 0.03250603
0.0064172824 0.059622537 0.037394788 -0.012219922 0.02727546 0.025812374 0.020521522 0.058535263
-0.0242663 -0.032254502 -0.010012238 -0.015368366 0.0063710553 -0.012724788 -0.0003314583 0.011138269
-0.02546098 -0.049647078 -0.022142842 0.047770046 -0.031586945 -0.018714307 0.05048364 0.026670568
0.027450787 0.04151068 -0.04731874 0.011233997 -0.02277105 0.0066687814 -0.0059862616 0.03097966
0.017199276 0.015751826 -0.020249495 -0.01660979 0.011625329 -0.048177186 0.037185192 -0.017930087
-0.025045786 -0.04423414 0.008833433 0.03775183 0.038172297 -0.019632552 -0.003549461 0.059367016
-0.0015055129 -0.024482176 -0.013198631 -0.0072154333 0.057563595 -0.056364812 -0.045624476 0.040123254
-0.0016172517 -0.074601434 -0.018997304 -0.026910791 -0.016402155 0.0043938616 0.022283383 -0.064897895
0.019094313 -0.014764583 0.025556821 0.025178604 0.0026975523 -0.044272184 0.005492179 -0.052309174
-0.042656712 -0.0211153 -0.014965811 0.005195212 -0.01790577 0.0029279112 0.017430563 0.028860975
00000000: 1c92 d43c 1b34 503c 4851 afbd b934 4abd
00000010: d547 f3bb 76df f8bb 806f b33c 90af 06bd
00000020: a3f3 adbc 2f62 37bd 24f9 eb3b 2f6a 2b3d
00000030: 0abd 393d 5ae2 183b 243e 0fbd 9d98 b6bc
00000040: d3cf 8f3b 531c c3bd 4f03 b3bd f512 4ebd
00000050: a8dd 8bbd c701 b0bc ba98 d9bc 2c19 643c
00000060: 4355 86bd f736 88bd 07ee d3bc 1d71 973c
00000070: ac47 60bc a9e0 a8bc 437f c73b 35b3 73bd
00000080: d829 de3c 2707 163d 1e54 1e3c 74ec a73c
00000090: aebe 2bbd ce78 cabb c3bc 0a3c dd6f a1bb
000000a0: 5dd3 c83a bb11 943c b0c5 2bbc 4e6e 0a3d
000000b0: 431f 173d 56af 2cbd efcd efbc 24a6 bb3c
000000c0: 2811 513d 6eb4 b93c ed50 2a3d 98bc 863c
000000d0: f4f6 88bc 4b26 603d 350c 5a3d 3ca1 ee3c
000000e0: 9cbb 98bc 67c7 b23c eb44 b83c 0bb4 c2bc
000000f0: 945d 913c 699b 3abd 7ea7 1b3d 0c14 023d
00000100: f45e 103d a1e3 443d 6596 13bd f9ad dcbc
00000110: 0537 9bbc 53e2 28bc 906a 01bd 8c65 15bc
00000120: b5a8 2a3d aba4 8e3b 639f e9bc f039 de3c
00000130: cb46 683d 7d0b 86bd c360 b53c dfeb 813b
00000140: 7ae4 523d f7e3 1a3a 8408 9e3b c3e3 30bd
00000150: 52d9 77bc 47e2 163c c23d 8cbd 595c 4ebd
00000160: 0551 86bd 7a7f 55bd b8e3 633d 57a5 47bd
00000170: 4465 d93c 8fbd 5cbd e2c8 84bd c1e3 a83d
00000180: fd6a 8d3d fdbf 383c fa1e 1bb9 2a08 843c
00000190: 6ebd fabc 7559 15bd 85e0 923d 57a1 7e3d
000001a0: 37d8 8c3d ecd0 16bc 3379 d7bb 5c7a c13c
000001b0: b8df 06bd 15bb 9e3d ab9e b8bc 2f60 b03c
000001c0: 8d3d 1ebd 6d1b 07bd 39eb 253d 66e4 fdbc
000001d0: b39a 06bd 6440 9dbc f316 4cbd 4f7e 2a3c
000001e0: 25e0 15bb 7675 c63b f738 2d3d a0a9 eb3c
000001f0: f7f3 13bd af3a 9c3c 0bde 683c afb1 bdba
00000200: 4c32 5fbc 1cec 2c3d 4136 bcba 0ef2 54bd
00000210: 45e1 a13c f642 433d 93f8 063d 080f 2e3c
00000220: 4212 9aba 1283 f23b 053c ebbc 7748 a53c
00000230: da87 fc3b 6094 f1bc dbef 9bbc 8708 7ebc
00000240: 6d89 23bd 5197 82bd 6aae aeba b015 59bd
00000250: 9ddc 283c b794 e2b9 a185 4ebd 2bf1 04bd
00000260: 22e0 c5bc 71d9 f83b 1ab7 a8bd 05c6 65bd
00000270: ab83 65bd fbbd 10bc 8415 60bd e7fe 23bd
00000280: 8afa 49bc 1525 4d3d f05a 423d 1c46 1f3c
00000290: 5567 9fbc 5680 a4bd 3359 693d b626 8c3d
000002a0: dded 94bd 0330 133d 9381 19bc a9e0 60bd
000002b0: 6f2a 1cbd d396 733b 823a 8fbd 0b25 053d
000002c0: 1148 d23b c336 743d 472b 193d 1136 48bc
000002d0: c970 df3c 7974 d33c c01c a83c acc2 6f3d
000002e0: 1fca c6bc 4c1d 04bd 5f0a 24bc 99cb 7bbc
000002f0: 49c4 d03b a17b 50bc 94c7 adb9 497d 363c
00000300: 8c93 d0bc bc5a 4bbd e864 b5bc 86aa 433d
00000310: 5061 01bd bf4e 99bc efc7 4e3d 3c7c da3c
00000320: 79e0 e03c 1a07 2a3d 4cd1 41bd cc0e 383c
00000330: 5a8a babc cb85 da3b 6728 c4bb 0ec9 fd3c
00000340: 7fe5 8c3c f909 813c 45e2 a5bc 4111 88bc
00000350: 2a78 3e3c 7155 45bd 804f 183d 1ee2 92bc
00000360: d22c cdbc dc2e 35bd 1aba 103c aaa1 1a3d
00000370: 8e5a 1c3d 72d4 a0bc 139e 68bb d42a 733d
00000380: a154 c5ba d88e c8bc 123f 58bc 716f ecbb
00000390: cec7 6b3d cade 66bd bbe0 3abd 4858 243d
000003a0: f6f9 d3ba a3c8 98bd 3ca0 9bbc 0574 dcbc
000003b0: d05d 86bc 62fa 8f3b a48b b63c 30e9 84bd
000003c0: ad6b 9c3c 26e7 71bc 8a5c d13c 5c43 ce3c
000003d0: 6bc9 303b c056 35bd bdf7 b33b 2542 56bd
000003e0: ceb8 2ebd fef9 acbc 2933 75bc 993c aa3b
000003f0: 1faf 92bc 33e2 3f3b 8aca 8e3c da6d ec3c

module.L3_convs.0.bias f4 [32]
0.00039231486 0.0013352445 -0.00021761187 -4.048237e-05 -1.2491009e-05 0.00015851768 0.00026962275 -2.2041226e-05
-0.00070697645 0.00012393613 -0.00046414573 5.1268585e-06 9.7705684e-05 -0.00023121866 0.00040459854 -0.00074261724
-4.393546e-05 -0.0006030235 3.147535e-05 -6.0265487e-05 -0.00044503165 0.0002508787 -0.0003889513 0.00032022808
0.0004660036 4.902175e-05 -0.00089996896 9.546741e-05 9.654862e-05 -7.1184713e-06 -0.00054444367 -0.0004290233
00000000: 9caf cd39 5f03 af3a be2e 64b9 9dcb 29b8
00000010: 7a90 51b7 c437 2639 275c 8d39 2ce5 b8b7
00000020: 6354 39ba daf4 0139 9658 f3b9 6107 ac36
00000030: 57e7 cc38 4973 72b9 4c20 d439 33ac 42ba
00000040: 5747 38b8 3914 1eba 6604 0438 93c5 7cb8
00000050: 2353 e9b9 5e88 8339 29ec cbb9 49e4 a739
00000060: f251 f439 b49c 4d38 e5eb 6bba ad35 c838
00000070: 257a ca38 34db eeb6 ffb8 0eba 88ee e0b9

module.L3_convs.1.weight f4 [32]
0.38522732 0.4659291 0.35828993 0.25054017 0.41841337 0.3836528 0.4961274 0.30972528
0.2978714 0.7381727 0.33894953 0.48059282 0.41042688 0.21573657 0.3266547 0.43821454
0.3420481 0.6592314 0.39533117 0.37720636 0.2961955 0.29125887 0.46136287 0.27608725
0.3447756 0.3410617 0.4136379 0.38991794 0.34994292 0.4035415 0.39925414 0.33096656
00000000: 843c c53e 428e ee3e c771 b73e cd46 803e
00000010: 473a d63e 246e c43e 6904 fe3e 5094 9e3e
00000020: 9a82 983e e3f8 3c3f cb8a ad3e 4310 f63e
00000030: 7923 d23e 0cea 5c3e 493f a73e a85d e03e
00000040: ee20 af3e 64c3 283f d968 ca3e 3121 c13e
00000050: f0a6 973e e21f 953e c137 ec3e 4f5b 8d3e
00000060: 6d86 b03e a49f ae3e 59c8 d33e 53a3 c73e
00000070: b82b b33e fe9c ce3e 0a6b cc3e 7374 a93e

module.L3_convs.1.bias f4 [32]
0.10257373 0.0053674746 0.093853645 0.05870381 -0.036457628 0.07858036 0.005215002 0.027617505
1.5424632e-05 0.016591825 0.10188333 -0.054056942 -0.032801602 -0.0041203354 0.015700243 0.029435273
0.022635557 0.03549777 0.020653829 0.015487428 0.050697643 0.005832711 -0.014828309 0.15207617
0.047609676 -0.013384379 0.09313244 0.043714922 -0.08150481 -0.1721422 0.095864 0.08980734
00000000: 2d12 d23d a4e1 af3b 5736 c03d 6873 703d
00000010: 9854 15bd bdee a03d 9ce2 aa3b 1b3e e23c
00000020: 2564 8137 94eb 873c 35a8 d03d d06a 5dbd
00000030: f95a 06bd e103 87bb cc9d 803c 3e22 f13c
00000040: 346e b93c 1c66 113d 3832 a93c fbbe 7d3c
00000050: 55a8 4f3d 5320 bf3b 70f2 72bc dbb9 1b3e
00000060: 5d02 433d 284a 5bbc 38bc be3d 6b0e 333d
00000070: feeb a6bd 0b46 30be 5854 c43d e9ec b73d

module.L3_convs.1.running_mean f4 [32]
-4.8008726e-05 0.0014290634 -0.00048519415 -0.00014861378 0.0002866139 -4.225197e-05 -0.00039590916 -0.00041700286
-0.0010003464 -0.00097293744 -0.00070935796 0.0008542763 0.00014847702 -0.00035747726 -7.416132e-05 -0.0014451619
-0.0005022426 -0.0015169461 -0.00022383526 -0.00037036298 -0.00070106564 -0.00013484151 -0.0006023103 -0.00013312722
0.00017446674 -0.00017069354 -0.0016890253 -0.0006715905 6.727337e-05 0.0010304302 -0.00095926865 -0.0008642664
00000000: fa5c 49b8 694f bb3a a861 feb9 35d5 1bb9
00000010: ab44 9639 b537 31b8 0792 cfb9 2da1 dab9
00000020: 0e1e 83ba ba0c 7fba 35f4 39ba 83f1 5f3a
00000030: 7fb0 1b39 c96b bbb9 0e87 9bb8 966b bdba
00000040: eea8 03ba 44d4 c6ba 52b5 6ab9 472d c2b9
00000050: b8c7 37ba 3e64 0db9 5ce4 1dba 1198 0bb9
00000060: 0ff1 3639 33fc 32b9 4962 ddba ad0d 30ba
00000070: 1e15 8d38 800f 873a 6e77 7bba f08f 62ba

module.L3_convs.1.running_var f4 [32]
0.075981244 0.15378611 0.0568881 0.03353111 0.06031711 0.045056857 0.12512192 0.14862409
0.078054085 0.28265527 0.10367773 0.119780205 0.15584181 0.050032422 0.08996967 0.17623283
0.09268883 0.2694494 0.08466443 0.113030635 0.07586925 0.0982664 0.19546425 0.06752283
0.048023842 0.16544068 0.13370664 0.115623474 0.117344946 0.19355094 0.14241804 0.1308252
00000000: 0e9c 9b3d 1b7a 1d3e 7f03 693d eb57 093d
00000010: 130f 773d 8a8d 383d f61f 003e ea30 183e
00000020: d2da 9f3d 31b8 903e fd54 d43d 534f f53d
00000030: ff94 1f3e ccee 4c3d 0542 b83d 6176 343e
00000040: a4d3 bd3d 46f5 893e 8b64 ad3d 9b7c e73d
00000050: 5661 9b3d e53f c93d c827 483e 6949 8a3d
00000060: a6b4 443d 4869 293e 65ea 083e 00cc ec3d
00000070: 8c52 f03d 3832 463e 09d6 113e 0bf7 053e

module.L3_convs.5.weight f4 [32, 32, 5, 5]
-0.010840513 -0.013498436 0.021218145 0.026654791 -0.0036318297 0.0030861346 0.016084598 0.014161526
0.010794526 0.013211322 5.269599e-06 0.018251603 0.017527562 -0.007881111 0.010520572 -0.0051433784
0.0129296705 0.014428215 0.007896009 0.007811173 0.014951423 -0.004537237 4.7362006e-05 -0.009652474
-0.007903868 0.007386253 0.0037317267 0.028343048 0.01643883 0.0026320685 -0.0018020754 0.008184566
0.029236415 0.031287197 0.0091238 0.011580737 0.007211471 0.012075761 -0.01055579 -0.0047352496
0.0145261185 -0.020231172 -0.0028542797 -0.032054234 -0.018066226 0.0084750885 0.0037390168 -0.0027821336
-0.0043526343 0.018479245 0.022264415 0.02761998 0.018003274 0.03058457 -0.0023196416 -0.007923074
-0.051869374 -0.013684092 0.011482059 -0.009621653 -0.021395799 -0.008724292 -0.024088873 0.013285879
0.010955973 -0.00661045 -0.002690296 -0.0047673914 -0.00764086 0.003117415 -0.00013635238 0.0009020714
0.011736991 -0.016585872 -0.017671352 -0.015978212 0.02121255 -0.004061123 -0.009034547 -0.020773053
0.005537472 0.005799715 -0.014220622 -0.0054739285 -0.0043051396 -0.00066697336 0.0071677756 0.00024022366
-0.017910132 -0.011520794 0.005174891 0.0052175666 -0.0009286739 0.009524593 0.010813166 0.011029
0.010208592 -0.012043631 0.01701359 0.011238087 0.011274212 0.006171027 -0.004535855 -0.00072676496
0.009866172 -0.0023498572 -0.013854477 0.0014857791 -0.006024967 0.011607289 -0.015330071 -0.0010416887
0.007245742 0.01656509 0.01333183 -0.019197293 -0.008367553 0.01888498 0.020629296 -0.020980723
0.002455958 -0.021055711 0.012736313 0.005067413 -0.005880175 -0.043839175 -0.02774275 -0.02619966
-0.039753184 -0.007037257 -0.015351057 -0.01490662 -0.03817943 -0.009904077 -0.017225686 -0.015274356
-0.0020164158 -0.015286708 0.009223812 0.0013195169 0.016011667 0.0069618593 0.0056907833 -0.0190493
-0.0016461696 0.011640806 0.019112457 -0.006845373 -0.0082716625 0.030147804 -0.01595086 0.0001444984
0.007528186 0.0029524707 0.014343587 0.004455049 -0.001690756 0.012061832 0.013567823 0.024093406
-0.004102602 0.004790264 0.013663634 0.010225101 0.014816414 -0.030572338 0.022548627 -0.024862023
-0.03222181 -0.006586894 -0.02288734 0.019134376 -0.00028478244 -0.008903045 -0.005922666 0.005191503
-0.0017825 0.012438863 0.007167403 0.033854965 0.0063718054 0.015831 0.008139118 -0.005429708
-0.00868325 0.024921302 0.005271571 -0.006304755 -0.001521525 -0.02969285 0.020315133 0.0036196236
-0.013469539 0.0031160726 -0.00082085596 -0.004489296 -0.028957587 -0.005391832 -0.009902463 0.031279694
-0.0010858449 -0.0036878982 -0.008848648 0.0043620006 -0.006170761 0.01059307 0.016888633 -0.001567538
-0.00563542 0.0021028465 0.017650692 0.026530478 0.01797839 -0.007445891 0.004741791 -0.013849169
0.002639814 0.028475026 -0.010808448 -0.012895274 0.0124921035 0.01592533 -0.006646732 -0.001954248
-0.00027645283 -0.006909613 0.00033131073 -0.023084693 -0.010882509 0.014121673 -0.0129731875 -0.026859598
0.011184779 0.002449053 -0.009645633 0.008351667 0.0040217643 -0.0068000965 0.010728371 0.0049612396
0.01005616 0.0015092138 -0.0045603705 -0.0006121859 0.0033397116 0.02115891 0.021536248 0.0105176
-0.012372851 -0.0038934234 -0.020330535 -0.0122252265 -0.037091296 -0.039737623 -0.015699873 0.005432013
00000000: 689c 31bc 8b28 5dbc add1 ad3c 265b da3c
00000010: fe03 6ebb bf40 4a3b d9c3 833c bf05 683c
00000020: 86db 303c 4d74 583c 83d1 b036 6384 953c
00000030: f695 8f3c c71f 01bc 7a5e 2c3c c989 a8bb
00000040: f8d6 533c 5264 6c3c 435e 013c def4 ff3b
00000050: d0f6 743c 1aad 94bb 91a6 4638 6925 1ebc
00000060: 3a7f 01bc 6208 f23b fc8f 743b ae2f e83c
00000070: baaa 863c c87e 2c3b 9e33 ecba 8f18 063c
00000080: 3581 ef3c 0127 003d fe7b 153c 22bd 3d3c
00000090: 344e ec3b 6ad9 453c 31f2 2cbc 272a 9bbb
000000a0: f5fe 6d3c d8bb a5bc de0e 3bbb 4d4b 03bd
000000b0: 9fff 93bc 19db 0a3c 4b0a 753b 7554 36bb
000000c0: 8ba0 8ebb c961 973c dd63 b63c 4c43 e23c
000000d0: 9a7b 933c 7e8c fa3c 2105 18bb c8cf 01bc
000000e0: fb74 54bd 3e33 60bc 3f1f 3c3c 23a4 1dbc
000000f0: 3e46 afbc 55f0 0ebc 0756 c5bc 04ad 593c
00000100: ae80 333c 799c d8bb ad4f 30bb c737 9cbb
00000110: 2e60 fabb 8b4d 4c3b d0f9 0eb9 fd78 6c3a
00000120: 824c 403c 18df 87bc 83c3 90bc bde4 82bc
00000130: f1c5 ad3c 2b13 85bb a305 14bc 402c aabc
00000140: af73 b53b 890b be3b 9dfd 68bc a45e b3bb
00000150: 2112 8dbb d3d7 2eba a9df ea3b 8ce4 7b39
00000160: 45b8 92bc b6c1 3cbc 2292 a93b 1ff8 aa3b
00000170: 4072 73ba 0a0d 1c3c b529 313c fbb2 343c
00000180: f041 273c a652 45bc 1660 8b3c f41f 383c
00000190: 79b7 383c 5436 ca3b 82a1 94bb 5f84 3eba
000001a0: baa5 213c 1000 1abb e3fd 62bc 79be c23a
000001b0: 166d c5bb 802c 3e3c fa2a 7bbc 4689 88ba
000001c0: b06d ed3b 83b3 873c bf6d 5a3c a443 9dbc
000001d0: 1018 09bc acb4 9a3c c5fe a83c c4df abbc
000001e0: 23f4 203b 077d acbc f8ab 503c 8b0c a63b
000001f0: 7cae c0bb b590 33bd c344 e3bc aba0 d6bc
00000200: 3cd4 22bd ca98 e6bb 0083 7bbc e53a 74bc
00000210: 0962 1cbd b644 22bc e21c 8dbc 4b41 7abc
00000220: d825 04bb 1a75 7abc 791f 173c a4f3 ac3a
00000230: e62a 833c 4f20 e43b c079 ba3b 470d 9cbc
00000240: 49c4 d7ba 14b9 3e3c ba91 9c3c 274f e0bb
00000250: de85 07bc 87f8 f63c 61ab 82bc 7e84 1739
00000260: 00af f63b 3d7e 413b 5d01 6b3c a9fb 913b
00000270: 5b9c ddba fd9e 453c 934b 5e3c 895f c53c
00000280: 1f6f 86bb a6f7 9c3b 6fdd 5f3c 2f87 273c
00000290: 8bc0 723c d772 fabc e6b7 b83c 71ab cbbc
000002a0: 04fb 03bd dfd6 d7bb 3b7e bbbc b2bf 9c3c
000002b0: da4e 95b9 14de 11bc ec12 c2bb 7c1d aa3b
000002c0: c6a2 e9ba 5fcc 4b3c 89dc ea3b 81ab 0a3d
000002d0: 94ca d03b 03b0 813c ef59 053c b1eb b1bb
000002e0: 3144 0ebc c227 cc3c 25bd ac3b 1e98 cebb
000002f0: e86d c7ba 6b3e f3bc ec6b a63c 3537 6d3b
00000300: 57af 5cbc 0637 4c3b b62e 57ba f21a 93bb
00000310: 7638 edbc f7ad b0bb f13d 22bc 231f 003d
00000320: e952 8eba aab0 71bb ebf9 10bc 1def 8e3b
00000330: 1834 cabb 8e8e 2d3c 085a 8a3c d975 cdba
00000340: 54a9 b8bb e9cf 093b 2f98 903c 7256 d93c
00000350: 6b47 933c a9fc f3bb 0761 9b3b a0e7 62bc
00000360: bb00 2d3b 7544 e93c eb15 31bc b346 53bc
00000370: aeab 4c3c d675 823c d4cc d9bb d712 00bb
00000380: dff0 90b9 096a e2bb c6b3 ad39 1c1c bdbc
00000390: 8d4c 32bc 975e 673c 7e8d 54bc a908 dcbc
000003a0: 5d40 373c 4b80 203b b808 1ebc 6ed5 083c
000003b0: 01c9 833b 58d3 debb 0dc6 2f3c e591 a23b
000003c0: 98c2 243c d0d0 c53a 296f 95bb 1a7b 20ba
000003d0: 10df 5a3b 7355 ad3c c96c b03c 0352 2c3c
000003e0: 80b7 4abc ce28 7fbb 398c a6bc 514c 48bc
000003f0: 0bed 17bd ebc3 22bd 059d 80bc 07ff b13b

module.L3_convs.5.bias f4 [32]
-0.0010180889 5.527973e-05 -0.00042193712 -0.0009035821 3.9699455e-05 -0.0012474157 0.0010250421 0.00029012864
0.0004807048 -0.00084930006 0.00022382736 0.00019350139 0.00042695264 -0.00026783638 0.00037125035 0.00071505806
-7.291018e-05 -0.00019076598 4.2075946e-05 -0.00023444725 0.0007968562 2.156297e-05 0.00010604476 0.00072426134
0.0005640768 0.00011041767 0.00035097738 1.6803988e-05 0.00012997369 -6.2012755e-06 0.0012211464 3.382275e-05
00000000: 6571 85ba 28dc 6738 7137 ddb9 5ede 6cba
00000010: f782 2638 5380 a3ba b55a 863a 681c 9839
00000020: 1b07 fc39 90a3 5eba 33b3 6a39 a2e6 4a39
00000030: 9dd8 df39 646c 8cb9 61a4 c239 bc72 3b3a
00000040: 5be7 98b8 5a08 48b9 b47a 3038 f4d5 75b9
00000050: 1de4 503a 20e2 b437 5964 de38 5bdc 3d3a
00000060: 8ede 133a 0990 e738 6303 b839 4af6 8c37
00000070: 8c49 0839 8d14 d0b6 e00e a03a e7dc 0d38

module.L3_convs.6.weight f4 [32]
0.38730484 0.36282745 0.22137894 0.42622882 0.6290053 0.3488948 0.30964485 0.50831723
0.34770972 0.37856507 0.32246268 0.39231402 0.48278275 0.22452177 0.7255084 0.26838505
0.5731243 0.37221777 0.4465575 0.22477908 0.43806243 0.49617714 0.59341395 0.34541368
0.3525041 0.25108615 0.32361183 0.30424646 0.45928636 0.33794403 0.45041183 0.31628612
00000000: d24c c63e 85c4 b93e 29b1 623e aa3a da3e
00000010: 7e06 213f 57a2 b23e c589 9e3e 1421 023f
00000020: 0207 b23e 48d3 c13e d419 a53e 62dd c83e
00000030: 4d2f f73e 09e9 653e ebba 393f c469 893e
00000040: 46b8 123f 5493 be3e 2fa3 e43e 7d2c 663e
00000050: b849 e03e ee0a fe3e fae9 173f 10da b03e
00000060: 6b7b b43e 5d8e 803e 73b0 a53e 31c6 9b3e
00000070: 9527 eb3e 0007 ad3e 619c e63e 41f0 a13e

module.L3_convs.6.bias f4 [32]
-0.005334198 -0.04198522 0.03582686 -0.012450692 -0.0025910633 0.039368983 0.025692567 -0.042640496
0.00663996 -0.006219848 0.0030732 0.00040198717 0.01305111 0.0378632 -0.04418076 0.023429474
-0.073622905 0.052432127 -0.05534894 0.051740333 0.007521264 -0.030190872 -0.02486829 0.05310518
0.057219464 0.01880245 0.044095784 0.00232595 -0.03303601 -0.040151607 0.009742989 0.028962705
00000000: 7fca aebb b2f8 2bbd 30bf 123d fdfd 4bbc
00000010: d4ce 29bb 5f41 213d 3879 d23c cda7 2ebd
00000020: 0694 d93b decf cbbb bd67 493b cec1 d239
00000030: 53d4 553c 7116 1b3d e2f6 34bd 2bef bf3c
00000040: 9bc7 96bd 12c3 563d 92b5 62bd aced 533d
00000050: ef74 f63b d952 f7bc 96b8 cbbc d184 593d
00000060: f55e 6a3d 9807 9a3c c89d 343d f76e 183b
00000070: c450 07bd 0376 24bd 0fa1 1f3c 3243 ed3c

module.L3_convs.6.running_mean f4 [32]
0.06894129 -0.076822706 -0.041305337 0.05859671 0.22449107 -0.17302625 0.06097798 0.12039497
0.040639725 -0.2630568 -0.12834238 -0.14787689 0.0042755366 -0.058030453 -0.19998947 -0.1549426
-0.411283 -0.040993866 0.11135576 0.008877843 -0.11830479 0.052180372 0.0073839957 -0.19585781
0.05772386 -0.22891021 0.026586069 0.043442506 0.070804164 -0.03235514 0.039653916 -0.07700483
00000000: 1731 8d3d 3955 9dbd c92f 29bd 1b03 703d
00000010: fde0 653e cb2d 31be 0cc4 793d a391 f63d
00000020: d775 263d 62af 86be 2f6c 03be 0a6d 17be
00000030: cd19 8c3b 57b1 6dbd 0aca 4cbe 46a9 1ebe
00000040: af93 d2be 2fe9 27bd 7d0e e43d 5f74 113c
00000050: c849 f2bd 16bb 553d 72f5 f13b f38e 48be
00000060: db6f 6c3d 7067 6abe 07cb d93c c5f0 313d
00000070: c601 913d d386 04bd 256c 223d b5b4 9dbd

module.L3_convs.6.running_var f4 [32]
0.007711034 0.007514232 0.0019563525 0.006016376 0.009634726 0.0051980293 0.004858246 0.011821489
0.0063585755 0.011967081 0.0034663172 0.005994725 0.009757092 0.0037641686 0.020263733 0.0026101442
0.013007424 0.008908677 0.009791688 0.0023669295 0.010552267 0.011577292 0.013603385 0.007561442
0.0076225116 0.0022139463 0.01580275 0.002405913 0.023528216 0.004439912 0.006740584 0.010709209
00000000: d7ac fc3b f239 f63b 2636 003b 0525 c53b
00000010: f8da 1d3c 3b54 aa3b ec31 9f3b ebae 413c
00000020: 995b d03b 9311 443c 272b 633b 666f c43b
00000030: 36dc 1f3c 45b0 763b 2100 a63c f40e 2b3b
00000040: 171d 553c b3f5 113c 516d 203c 7d1e 1b3b
00000050: 6ae3 2c3c afae 3d3c bbe0 5e3c f9c5 f73b
00000060: 43c6 f93b db17 113b c574 813c 86ac 1d3b
00000070: 3fbe c03c ae7c 913b 1ee0 dc3b ae75 2f3c

module.L3_convs.8.weight f4 [32, 32, 5, 5]
2.4572e-41 -1.7959e-41 6.795e-42 1.4973e-41 1.9966e-41 1.6872e-41 2.925e-42 1.9796e-41
-2.011e-41 2.6629e-41 1.3801e-41 1.6125e-41 -1.6863e-41 -1.8559e-41 2.245e-42 1.7117e-41
5.521e-42 -1.2826e-41 2.063e-42 2.4852e-41 -1.288e-42 1.4124e-41 1.4243e-41 -1.0337e-41
5.785e-42 -1.2389e-41 -2.0023e-41 -8.703e-42 2.3011e-41 1.8571e-41 1.7773e-41 -4.217e-42
-1.6146e-41 2.8993e-41 1.2257e-41 -2.958e-42 1.864e-42 1.3518e-41 -6.94e-43 1.0403e-41
1.74e-41 2.1105e-41 -2.27e-42 -1.5818e-41 -3.39e-42 2.7663e-41 -1.0585e-41 -2.2143e-41
1.611e-42 -6.964e-42 -2.9071e-41 -2.9289e-41 1.1453e-41 2.536e-42 -1.0979e-41 -3.3382e-41
1.6233e-41 1.2434e-41 -9.747e-42 -1.9886e-41 -2.7157e-41 7.6e-43 -1.4234e-41 2.2858e-41
-2.106e-42 1.8392e-41 2.907e-41 -7.3e-44 5.967e-42 1.0263e-41 1.7457e-41 -1.1697e-41
4.039e-42 2.68e-42 2.2526e-41 -1.7724e-41 -1.9933e-41 1.314e-42 1.9299e-41 -4.046e-42
-1.802e-42 1.5568e-41 3.289e-42 6.178e-42 -1.5536e-41 1.6783e-41 -1.0815e-41 -5.32e-42
-1.4545e-41 -4.417e-42 1.04e-41 2.5474e-41 -2.6249e-41 5.757e-42 -1.7223e-41 -1.8447e-41
7.52e-42 -1.9997e-41 -5.783e-42 -8.34e-43 1.7215e-41 1.5291e-41 1.6268e-41 1.4997e-41
-1.137e-41 2.5616e-41 -2.3667e-41 -4.417e-42 -1.8528e-41 -7.417e-42 2.7103e-41 8.862e-42
-9.335e-42 -1.036e-42 -1.7861e-41 -1.8598e-41 -1.501e-42 1.2903e-41 -2.23e-42 -9.525e-42
-2.6779e-41 6.28e-42 1.7935e-41 1.538e-41 -9.263e-42 -1.932e-41 -8.75e-42 -1.5246e-41
-1.6855e-41 -1.786e-41 3.056e-41 -6.674e-42 -6.695e-42 8.38e-42 -1.9196e-41 -2.5697e-41
2.0753e-41 1.12e-41 9.463e-42 -1.2836e-41 1.9942e-41 -8.705e-42 2.5491e-41 -4.935e-42
-4.466e-42 -6.681e-42 -2.5404e-41 -1.2603e-41 -7.875e-42 -8.9e-42 -2.3852e-41 2.7086e-41
1.2914e-41 1.7152e-41 2.4695e-41 9.593e-42 4.51e-43 -2.853e-42 -2.136e-42 -9.526e-42
1.1006e-41 -2.2016e-41 1.3216e-41 7.602e-42 -1.2626e-41 -1.163e-41 -7.95e-42 1.893e-41
-1.7326e-41 -3.3527e-41 1.608e-41 1.5704e-41 -1.8667e-41 -1.791e-42 -2.6944e-41 -8.265e-42
7.616e-42 9.205e-42 1.5372e-41 1.0196e-41 -2.0006e-41 -8.69e-43 -6.414e-42 2.4806e-41
-2.134e-41 -1.453e-42 -4.909e-42 2.5729e-41 -1.2495e-41 1.111e-42 1.1683e-41 4.713e-42
2.2773e-41 7.78e-43 4.776e-42 5.518e-42 1.6954e-41 -1.2418e-41 -1.6702e-41 -1.784e-41
-2.9175e-41 2.2537e-41 1.6737e-41 2.0379e-41 -1.0347e-41 -1.9153e-41 1.1554e-41 -2.1699e-41
-2.5631e-41 -2.1758e-41 2.6812e-41 -1.4967e-41 -1.1775e-41 2.2264e-41 1.984e-41 1.1659e-41
1.3671e-41 2.597e-41 1.6907e-41 7.486e-42 -2.6015e-41 -1.174e-42 -6.918e-42 1.96e-43
-2.373e-41 -1.099e-41 -7.917e-42 1.5529e-41 1.2851e-41 1.1994e-41 -2.0421e-41 3.54e-42
2.9324e-41 -1.3674e-41 7.752e-42 -1.3715e-41 -1.3049e-41 5.981e-42 1.9712e-41 -1.0705e-41
-3.272e-42 1.169e-42 1.285e-41 -7.755e-42 1.2969e-41 1.237e-41 -2.6929e-41 -1.461e-41
-1.5255e-41 1.8902e-41 2.65e-41 -9.651e-42 -2.9984e-41 1.7363e-41 -2.5281e-41 -1.2104e-41
00000000: 7f44 0000 1032 0080 f112 0000 bd29 0000
00000010: a837 0000 082f 0000 2708 0000 2f37 0000
00000020: 0f38 0080 3b4a 0000 7926 0000 f32c 0000
00000030: 022f 0080 bc33 0080 4206 0000 b72f 0000
00000040: 640f 0000 c123 0080 c005 0000 4745 0000
00000050: 9703 0080 5f27 0000 b427 0000 d11c 0080
00000060: 2010 0000 8922 0080 d137 0080 4318 0080
00000070: 2540 0000 c533 0000 8b31 0000 c10b 0080
00000080: 022d 0080 d250 0000 2b22 0000 3f08 0080
00000090: 3205 0000 af25 0000 ef01 0080 001d 0000
000000a0: 8130 0000 d53a 0000 5406 0080 182c 0080
000000b0: 7309 0080 1d4d 0000 821d 0080 ba3d 0080
000000c0: 7e04 0000 6a13 0080 0a51 0080 a551 0080
000000d0: ed1f 0000 1207 0000 9b1e 0080 0e5d 0080
000000e0: 402d 0000 a922 0000 2c1b 0080 6f37 0080
000000f0: b44b 0080 1e02 0000 ae27 0080 b83f 0000
00000100: df05 0080 4533 0000 0951 0000 3400 0080
00000110: a210 0000 9c1c 0000 aa30 0000 9b20 0080
00000120: 420b 0000 7907 0000 cb3e 0000 6831 0080
00000130: 9137 0080 aa03 0000 cc35 0000 470b 0080
00000140: 0605 0080 662b 0000 2b09 0000 3911 0000
00000150: 4f2b 0080 c92e 0000 261e 0080 d40e 0080
00000160: 8c28 0080 500c 0080 fe1c 0000 0347 0000
00000170: 2c49 0080 0c10 0000 0330 0080 6c33 0080
00000180: f614 0000 be37 0080 1f10 0080 5302 0080
00000190: fd2f 0000 a02a 0000 592d 0000 ce29 0000
000001a0: b21f 0080 6847 0000 f941 0080 500c 0080
000001b0: a633 0080 ad14 0080 8d4b 0000 b418 0000
000001c0: 061a 0080 e302 0080 ca31 0080 d833 0080
000001d0: 2f04 0080 f823 0000 3706 0080 8d1a 0080
000001e0: a64a 0080 8211 0000 ff31 0000 e02a 0000
000001f0: d219 0080 db35 0080 6418 0080 802a 0080
00000200: fc2e 0080 c931 0080 3055 0000 9b12 0080
00000210: aa12 0080 5c17 0000 8335 0080 a247 0080
00000220: da39 0000 391f 0000 611a 0000 c823 0080
00000230: 9737 0000 4418 0080 0f47 0000 c20d 0080
00000240: 730c 0080 a012 0080 d146 0080 2223 0080
00000250: f415 0080 cf18 0080 7d42 0080 814b 0000
00000260: 0024 0000 d02f 0000 d744 0000 be1a 0000
00000270: 4201 0000 f407 0080 f405 0080 8e1a 0080
00000280: ae1e 0000 5f3d 0080 d724 0000 3115 0000
00000290: 3223 0080 6b20 0080 2916 0080 c534 0000
000002a0: 4c30 0080 765d 0080 d32c 0000 c72b 0000
000002b0: 0934 0080 fe04 0080 1c4b 0080 0a17 0080
000002c0: 3b15 0000 a919 0000 da2a 0000 6c1c 0000
000002d0: c537 0080 6c02 0080 e111 0080 2645 0000
000002e0: 7d3b 0080 0d04 0080 af0d 0080 b947 0000
000002f0: d522 0080 1903 0000 9120 0000 230d 0000
00000300: 7b3f 0000 2b02 0000 500d 0000 620f 0000
00000310: 432f 0000 9e22 0080 8f2e 0080 bb31 0080
00000320: 5451 0080 d33e 0000 a82e 0000 cf38 0000
00000330: d81c 0080 6435 0080 3520 0000 7d3c 0080
00000340: 7347 0080 a73c 0080 be4a 0000 b929 0080
00000350: d320 0080 103e 0000 4e37 0000 8020 0000
00000360: 1c26 0000 6548 0000 212f 0000 de14 0000
00000370: 8548 0080 4603 0080 4913 0080 8c00 0000
00000380: 2642 0080 a31e 0080 1216 0080 4a2b 0000
00000390: d323 0000 6f21 0000 ed38 0080 de09 0000
000003a0: be51 0000 1e26 0080 9c15 0000 3b26 0080
000003b0: 6024 0080 ac10 0000 f336 0000 d71d 0080
000003c0: 1f09 0080 4203 0000 d223 0000 9e15 0080
000003d0: 2724 0000 7c22 0000 114b 0080 ba28 0080
000003e0: 862a 0080 b134 0000 df49 0000 e71a 0080
000003f0: 9553 0080 6730 0000 7946 0080 be21 0080

module.L3_convs.8.bias f4 [32]
2.651e-41 0.00012849225 -3.108e-41 -1.3705287e-06 -3.0478e-41 -1.0801e-41 1.7085e-41 -9.6e-42
2.4069e-41 -8.626978e-06 -1.073489e-05 8.017277e-05 1.9406994e-05 -2.486e-42 1.5852329e-05 1.3202e-41
3.855684e-05 -1.541e-41 6.2714153e-06 6.5864304e-05 7.732e-42 2.972325e-05 3.4398254e-05 -2.0994e-41
-8.110678e-05 -2.5726e-41 -1.799e-41 1.7953e-41 8.418433e-05 2.2962e-41 3.6653887e-07 2.966e-41
00000000: e649 0000 e0bb 0639 a356 0080 02f3 b7b5
00000010: f654 0080 1c1e 0080 a02f 0000 c31a 0080
00000020: 1843 0000 97bc 10b7 001a 34b7 6e22 a838
00000030: 34cc a237 ee06 0080 9efa 8437 cd24 0000
00000040: 17b8 2138 f52a 0080 0c6f d236 a120 8a38
00000050: 8e15 0000 3156 f937 d846 1038 863a 0080
00000060: df17 aab8 b747 0080 2632 0080 0c32 0000
00000070: 1e8c b038 0240 0000 b8c8 c434 ae52 0000

module.L3_convs.9.weight f4 [32]
1.8096e-41 0.78237593 8.999e-42 0.6713351 1.0238e-41 -1.9715e-41 2.2288e-41 -1.72e-42
-7.619e-42 0.45288447 0.39563787 0.7580711 0.5520303 -9.565e-42 0.7491147 8.887e-42
0.58200586 2.245e-42 0.68699366 0.8696221 -5.956e-42 0.77310544 0.6335316 1.2734e-41
0.81045073 -1.253e-42 -2.4582e-41 8.877e-42 0.77284807 -1.1175e-41 0.42593476 1.904e-42
00000000: 7232 0000 ca49 483f 1619 0000 9edc 2b3f
00000010: 8a1c 0000 f536 0080 213e 0000 cb04 0080
00000020: 3d15 0080 79e0 e73e 0c91 ca3e f310 423f
00000030: dc51 0d3f aa1a 0080 fbc5 3f3f c618 0000
00000040: 56fe 143f 4206 0000 d1de 2f3f 8e9f 5e3f
00000050: 9a10 0080 3dea 453f 202f 223f 7f23 0000
00000060: b379 4f3f 7e03 0080 8644 0080 bf18 0000
00000070: 5fd9 453f 271f 0080 1f14 da3e 4f05 0000

module.L3_convs.9.bias f4 [32]
8.64e-42 -0.042599093 -1.6244e-41 -0.02954788 -9.662e-42 -2.458e-42 2.3036e-41 -1.93e-43
-3.3637e-41 0.005980299 0.0010386999 -0.043132346 -0.034189537 8.135e-42 -0.037740525 2.0183e-41
-0.02031209 1.3915e-41 -0.029710777 0.0069207326 -1.5002e-41 -0.03536095 -0.033289965 -1.9266e-41
-0.03939864 -1.8584e-41 -1.2079e-41 -1.7718e-41 -0.04007107 2.7059e-41 0.00033117933 1.9493e-41
00000000: 1618 0000 637c 2ebd 482d 0080 650e f2bc
00000010: ef1a 0080 da06 0080 3740 0000 8a00 0080
00000020: c45d 0080 62f6 c33b fc24 883a 8bab 30bd
00000030: 540a 0cbd ad16 0000 cf95 1abd 4338 0000
00000040: 8a65 a6bc ca26 0000 0464 f3bc 50c7 e23b
00000050: d229 0080 a5d6 10bd 0f5b 08bd b535 0080
00000060: 7860 21bd ce33 0080 ac21 0080 6431 0080
00000070: 9021 24bd 6e4b 0000 23a2 ad39 5736 0000

module.L3_convs.9.running_mean f4 [32]
5.66e-43 -0.18049484 3.342e-42 -0.000609696 -1.2186e-41 7.064e-42 7.325e-42 5.925e-42
-7.826e-42 -0.09260495 -0.050996527 0.10344347 -0.034147706 6.57e-43 -0.1824001 2.151e-41
0.053531475 -8.01e-42 0.05310608 -0.28081378 1.157e-42 -0.105008654 0.13461824 -3.8e-42
-0.042391233 -1.5637e-41 -2.122e-42 -1.8339e-41 -0.07957258 -1.9523e-41 0.20077729 1.3827e-41
00000000: 9401 0000 a4d3 38be 5109 0000 02d4 1fba
00000010: f821 0080 b113 0000 6b14 0000 8410 0000
00000020: d115 0080 aaa7 bdbd bce1 50bd 2cda d33d
00000030: 77de 0bbd d501 0000 18c7 3abe f63b 0000
00000040: d243 5b3d 5416 0080 c385 593d d3c6 8fbe
00000050: 3a03 0000 c70e d7bd 5dd9 093e 980a 0080
00000060: 6ea2 2dbd 972b 0080 ea05 0080 1f33 0080
00000070: f3f6 a2bd 6c36 0080 9098 4d3e 8b26 0000

module.L3_convs.9.running_var f4 [32]
6e-45 0.061655723 6e-45 0.05825362 6e-45 6e-45 6e-45 6e-45
6e-45 0.038319584 0.017223092 0.069969304 0.033673845 6e-45 0.049632404 6e-45
0.045338318 6e-45 0.0765814 0.059144307 6e-45 0.087726936 0.042497765 6e-45
0.112734884 6e-45 6e-45 6e-45 0.0720724 6e-45 0.112339996 6e-45
00000000: 0400 0000 b68a 7c3d 0400 0000 599b 6e3d
00000010: 0400 0000 0400 0000 0400 0000 0400 0000
00000020: 0400 0000 fff4 1c3d 7117 8d3c 114c 8f3d
00000030: 96ed 093d 0400 0000 594b 4b3d 0400 0000
00000040: acb4 393d 0400 0000 b6d6 9c3d 4d41 723d
00000050: 0400 0000 2eaa b33d 2312 2e3d 0400 0000
00000060: 8ce1 e63d 0400 0000 0400 0000 0400 0000
00000070: b29a 933d 0400 0000 8312 e63d 0400 0000

module.fc1.weight f4 [512, 32]
1.319e-41 0.00038654142 -8.084e-42 -0.00034177795 -2.0387e-41 -1.4928e-41 1.419e-41 3.963e-42
-8.572e-42 2.0094754e-05 -0.00028126242 -0.00010927045 0.0005100438 1.8528e-41 0.00055685296 -1.0612e-41
-0.00043883157 -2.8746e-41 -0.0005028342 -0.0004338979 -1.6057e-41 -0.00064280856 -0.00015749398 -4.5e-44
8.544935e-05 -2.011e-41 2.3081e-41 1.3672e-41 0.0006707911 -2.871e-41 -6.932013e-05 2.0032e-41
-1.6597e-41 0.004340129 -4.829e-42 -0.001253535 2.5669e-41 3.023e-41 -6.247e-42 3.0169e-41
8.216e-42 -0.0010921471 -0.0014372063 0.002343683 0.002523916 9.19e-43 0.0023116271 -2.945e-41
-0.0008701482 1.2088e-41 -0.000561889 -0.0024175027 -1.5647e-41 -0.00095656945 0.002744104 -1.4948e-41
0.0027471967 2.4527e-41 1.5916e-41 -2.571e-41 0.0014931457 -1.6374e-41 0.0015420731 3.868e-42
3.6518e-41 0.04137487 1.2581e-41 -0.071126506 -1.0682e-41 4.8025e-41 -1.2913e-41 4.7951e-41
-8.5272e-41 -0.011693073 -0.024415271 0.07342138 0.03668641 4.6624e-41 0.030790059 8.2839e-41
-0.040331382 -2.9616e-41 -0.061282765 -0.06314555 1.2812e-41 0.015774392 0.034464944 -1.83514e-40
0.014192662 5.5674e-41 -9.5269e-41 -2.1189e-41 0.03691992 -1.7575e-41 0.020656196 8.0995e-41
2.9405e-41 0.00015040787 -1.8719e-41 -6.530176e-05 -3.0791e-41 2.974e-42 -1.2015e-41 -4.086e-42
3.922e-42 -8.6955115e-05 -4.9953687e-05 8.965287e-05 1.7024571e-05 -2.1042e-41 6.100695e-05 1.7219e-41
-5.0677503e-05 -2.472e-42 -6.988579e-05 0.00024165153 -2.0986e-41 1.555737e-05 -6.382113e-05 -2.9499e-41
0.00011309128 1.23e-43 6.795e-42 1.342e-41 1.1375074e-05 -2.2162e-41 6.088624e-06 -1.1062e-41
3.19e-41 0.022390924 -9.212e-42 -0.06618153 -1.35168e-40 -1.404e-41 -1.8024e-41 2.588e-42
-8.77e-41 -0.028367762 -0.012809314 0.0065707676 0.046873793 3.1758e-41 0.016853772 6.5265e-41
-0.08107578 -1.157e-40 -0.076116115 -0.057687245 -2.9125e-41 0.075296305 0.06990181 -1.5991e-40
0.050889634 -1.548e-42 -8.4689e-41 1.6568e-41 0.03719482 -7.0813e-41 0.052438583 5.9984e-41
-3.2846e-41 -2.2485032e-05 4.554e-42 6.113717e-05 8.877e-42 1.0853e-41 3.3733e-41 5.801e-42
-1.4512e-41 8.3565255e-06 2.93994e-05 1.378779e-05 -6.970957e-06 -5.88e-42 -4.7502413e-06 -2.2534e-41
4.5435027e-05 -1.9763e-41 2.0683763e-05 1.9194993e-05 6.377e-42 -5.4848624e-05 -6.4732085e-05 2.4391e-41
-5.8801117e-08 1.3677e-41 -1.8464e-41 1.53e-43 -1.1932451e-05 -2.8079e-41 -1.2099253e-05 2.6382e-41
-1.7323e-41 -1.9324223e-06 -1.7148e-41 -1.9096311e-05 -1.762e-41 -1.5337e-41 -1.9192e-41 -4.45e-42
1.5438e-41 -1.692769e-06 -1.6155153e-07 -5.540536e-06 -4.4591357e-06 -3.903e-42 -8.875945e-06 2.6755e-41
3.801525e-05 2.5418e-41 1.0918436e-05 -2.8090417e-06 -7.131e-42 2.178012e-06 -1.26598e-05 1.189e-41
-9.760269e-06 -1.5989e-41 1.3148e-41 -2.01e-41 -9.164284e-06 -1.6814e-41 7.3152387e-07 2.8043e-41
-1.9751e-41 4.3992473e-05 1.1107e-41 -7.3347954e-05 2.6919e-41 -3.0059e-41 -3.1016e-41 -2.6375e-41
2.2066e-41 1.0109734e-05 -4.0634393e-05 2.3344384e-05 -0.000121028344 5.04e-43 7.579788e-05 -1.0525e-41
-5.0283306e-06 1.4377e-41 1.5785274e-05 -5.4500873e-05 2.1612e-41 -1.5658522e-06 -1.0063076e-05 -2.3442e-41
0.00010636057 -1.3249e-41 -1.6244e-41 -1.0922e-41 -0.0002871209 2.8403e-41 6.626701e-05 -1.2487e-41
00000000: c524 0000 b6a8 ca39 8916 0080 a930 b3b9
00000010: d538 0080 9d29 0080 8e27 0000 0c0b 0000
00000020: e517 0080 2891 a837 6776 93b9 2028 e5b8
00000030: 76b4 053a a633 0000 c5f9 113a 951d 0080
00000040: fa12 e6b9 2250 0080 a2d0 03ba ca7c e3b9
00000050: c32c 0080 2782 28ba f824 25b9 2000 0080
00000060: 4533 b338 0f38 0080 5740 0000 1d26 0000
00000070: 07d8 2f3a 0850 0080 f65f 91b8 d737 0000
00000080: 442e 0080 a437 8e3b 760d 0080 a84d a4ba
00000090: 8e47 0000 4554 0000 6a11 0080 1954 0000
000000a0: e716 0000 6026 8fba a460 bcba 7a98 193b
000000b0: 4968 253b 9002 0000 ab7e 173b 1852 0080
000000c0: a81a 64ba b221 0000 bc4b 13ba f76e 1ebb
000000d0: 9e2b 0080 4ac2 7aba 6dd6 333b ab29 0080
000000e0: 500a 343b 5f44 0000 5e2c 0000 ab47 0080
000000f0: a8b5 c33a a52d 0080 631f ca3a c80a 0000
00000100: cc65 0000 b278 293d 1223 0000 c6aa 91bd
00000110: c71d 0080 e085 0000 ff23 0080 ab85 0000
00000120: b4ed 0080 4e94 3fbc 8902 c8bc f35d 963d
00000130: 7d44 163d f881 0000 6f3b fc3c ece6 0000
00000140: 8532 25bd 8f52 0080 a303 7bbd 7452 81bd
00000150: b723 0000 4c39 813c 1d2b 0d3d 90ff 0180
00000160: 5788 683c 329b 0000 9209 0180 113b 0080
00000170: 5839 173d fe30 0080 2f37 a93c c8e1 0000
00000180: f851 0000 ceb6 1d39 2e34 0080 9ef2 88b8
00000190: d555 0080 4a08 0000 7e21 0080 640b 0080
000001a0: ef0a 0000 ac5b b6b8 5d85 51b8 0504 bc38
000001b0: fdcf 8e37 a83a 0080 b7e1 7f38 0030 0000
000001c0: 8e8e 54b8 e406 0080 a68f 92b8 d763 7d39
000001d0: 803a 0080 3381 8237 b5d7 85b8 3b52 0080
000001e0: 6b2b ed38 5800 0000 f112 0000 6925 0000
000001f0: 92d7 3e37 c73d 0080 e24c cc36 d61e 0080
00000200: ed58 0000 2c6d b73c ae19 0080 2f8a 87bd
00000210: cb78 0180 2327 0080 3e32 0080 3707 0000
00000220: 79f4 0080 8263 e8bc 28de 51bc 984f d73b
00000230: bcfe 3f3d 8758 0000 ec10 8a3c efb5 0000
00000240: 0f0b a6bd 8642 0180 c4e2 9bbd 7649 6cbd
00000250: 3051 0080 f334 9a3d ae28 8f3d c4bd 0180
00000260: a671 503d 5104 0080 14ec 0080 2f2e 0000
00000270: 9859 183d 66c5 0080 d7c9 563d 36a7 0000
00000280: 905b 0080 3d9e bcb7 b20c 0000 c536 8038
00000290: bf18 0000 411e 0000 095e 0000 2c10 0000
000002a0: 7428 0080 0133 0c37 bb9e f637 1b52 6737
000002b0: 11e8 e9b6 6410 0080 4364 9fb6 d13e 0080
000002c0: 7d91 3e38 1737 0080 0b82 ad37 ef04 a137
000002d0: c711 0000 430d 66b8 c6c0 87b8 fe43 0000
000002e0: 838c 7cb3 2026 0000 7833 0080 6d00 0000
000002f0: 7d31 48b7 464e 0080 e5fd 4ab7 8b49 0000
00000300: 4a30 0080 c3ae 01b6 cd2f 0080 0431 a0b7
00000310: 1e31 0080 c12a 0080 8035 0080 680c 0080
00000320: 092b 0000 1a33 e3b5 f276 2db4 d8e8 b9b6
00000330: af9f 95b6 e10a 0080 e5e9 14b7 954a 0000
00000340: 9072 1f38 db46 0000 532e 3737 f882 3cb6
00000350: e113 0080 f629 1236 6d65 54b7 2521 0000
00000360: 09c0 23b7 922c 0080 a724 0000 0838 0080
00000370: 4dc0 19b7 df2e 0080 f05d 4435 2c4e 0000
00000380: 0f37 0080 8f84 3838 f61e 0000 62d2 99b8
00000390: 0a4b 0000 cb53 0080 7656 0080 8649 0080
000003a0: 833d 0000 fa9c 2937 d96e 2ab8 afd3 c337
000003b0: 99d0 fdb8 6801 0000 adf5 9e38 571d 0080
000003c0: 08b9 a8b6 1428 0000 9e6a 8437 de97 64b8
000003d0: 3f3c 0000 462a d2b5 95d4 28b7 5941 0080
000003e0: e50d df38 ef24 0080 482d 0080 721e 0080
000003f0: b788 96b9 2d4f 0000 d5f8 8a38 cf22 0080

module.fc1.bias f4 [512]
0.00013468161 0.00032980618 -0.017353386 -2.2667682e-05 -0.016441269 5.416773e-06 -2.9192258e-06 2.4046398e-05
-9.8449374e-05 -0.00055018667 -7.803028e-06 -0.00015866138 0.005251527 6.988202e-05 0.0029141 -6.9967726e-05
-0.0226252 7.378829e-07 -2.583976e-06 -0.0039449865 -0.01755236 -0.025741084 -0.0088646 0.00090046856
2.3206292e-06 -0.00039898165 0.017445944 4.6392848e-05 0.0028325524 0.00039056715 2.0076706e-05 -3.0506279e-05
1.7025431e-07 0.009117674 0.0016780493 3.7298207e-05 -1.725653e-05 1.6147351e-06 -3.0639575e-07 -2.3776666e-07
-0.057422545 0.00021950612 2.432974e-05 0.019164395 0.0031478086 0.0033242463 -0.008979092 -0.0007938315
-0.0010240946 -0.00042107893 0.008049017 -0.010203824 0.0006409523 -0.003840308 -3.8445938e-07 9.699073e-05
2.569537e-05 -1.1549163e-06 -0.001363902 0.0004691466 0.003087517 -0.00039773015 -1.6548724e-05 8.5205065e-06
-6.9879416e-06 0.000677971 7.564903e-05 -0.0027637354 -2.6937298e-06 0.007100773 -0.021135792 1.2971724e-05
0.020884955 4.976091e-07 -2.823796e-06 6.876565e-06 6.3161013e-07 1.9322792e-06 0.0023175457 9.303039e-05
-1.7091546e-06 2.958325e-05 0.006720331 0.017582757 1.8749588e-06 -0.002177927 4.2743526e-05 -0.0009607953
0.00034228104 -0.0009328441 -7.062964e-05 0.00015849498 -0.0007921272 -8.466331e-05 -0.004210156 -0.0013392866
0.0039367764 0.0006213845 0.00067133724 0.0022777067 -7.7184177e-07 -2.5161731e-05 -4.5439516e-05 -0.0017567982
0.0012319763 -3.5518121e-06 -0.0015512337 3.2863697e-06 -5.879872e-06 8.8738454e-07 -0.0005812553 -1.8882018e-05
0.0023248596 -0.028974816 1.2687694e-05 -0.020922387 -0.0018324924 -2.0327757e-06 0.0050655226 -0.00034196035
-3.114184e-06 0.0015253169 0.0076763886 -4.499666e-05 2.6455432e-06 -0.016911449 -0.0057847695 -2.9410498e-05
-0.0008397672 -0.00028110272 0.0039645676 1.6639157e-06 0.0008658427 1.0755762e-05 -9.685115e-07 -4.5136294e-06
2.6803853e-05 4.6435744e-05 0.031078802 0.0015157034 0.0017904439 0.000970894 1.4924505e-05 -1.7548513e-06
0.000379738 0.0021852993 5.4324977e-05 0.0024263696 0.0016652329 -7.3313076e-06 -0.00890036 -1.1023793e-05
0.0008139122 -1.07197475e-05 0.00054049626 0.0008320127 -0.008843323 -2.078507e-06 -0.015811587 -0.0002920514
0.010087961 -0.014726204 -7.665848e-06 4.5019226e-07 -0.0007330592 -0.00034634557 -0.0038232608 -5.4134096e-05
1.765249e-07 -2.9075643e-06 2.7055091e-06 0.00067438436 1.6984884e-05 -0.0013550489 -0.0012490628 -0.0002716027
-6.0543657e-06 4.495021e-06 -0.0022302885 -0.0027207443 0.008210957 -2.3941527e-06 5.4756197e-06 -6.983256e-05
6.628371e-05 -0.0012855374 -0.00013746017 1.8855168e-06 -6.351103e-06 -0.010547154 9.464818e-06 7.984375e-07
0.001974642 0.0064325086 4.930222e-05 -0.0068324977 -3.8827966e-06 0.00010246457 8.3511986e-07 -3.0401734e-06
-0.0018479471 1.1246995e-05 8.635458e-06 0.00020436909 -8.0266924e-05 0.026109567 0.01240027 1.974264e-05
0.001025786 0.003115716 -0.01673066 0.017051151 0.00040671995 0.0012729374 -1.9644795e-06 -1.5651889e-05
-2.0586094e-06 -0.0214559 0.0010996051 1.6494037e-06 1.791854e-05 0.006633661 0.006891518 2.7781916e-06
-1.5626387e-06 5.103479e-05 -0.056168858 0.008646275 3.6131434e-05 -0.0075824773 0.00037823617 -0.015768047
9.842987e-06 0.0010889687 0.016702725 -0.00026283207 5.326995e-06 2.3428074e-06 -0.004016292 0.00033570913
0.0042897654 0.012709668 -0.00025969927 0.0004862379 0.0011333138 0.00048399574 -0.009820989 -1.5466767e-05
0.0044509377 0.0017929524 0.00064613344 0.005056692 -0.0077668196 -4.8359484e-06 4.9101113e-06 0.010130268
00000000: 5239 0d39 d6e9 ac39 b028 8ebc 7a26 beb7
00000010: d7af 86bc bac1 b536 ebe7 43b6 3fb7 c937
00000020: 9b76 ceb8 673a 10ba c0e9 02b7 575e 26b9
00000030: 0015 ac3b a08d 9238 7cfa 3e3b a3bb 92b8
00000040: 7c58 b9bc ed12 4635 5f68 2db6 f244 81bb
00000050: f8c9 8fbc f7de d2bc d43c 11bc 6c0d 6c3a
00000060: 1bbc 1b36 692e d1b9 ccea 8e3c f195 4238
00000070: 58a2 393b 09c5 cc39 666a a837 bce7 ffb7
00000080: 26cf 3634 4c62 153c fef1 db3a a570 1c38
00000090: 1ec2 90b7 e0b9 d835 b67e a4b4 cd4c 7fb4
000000a0: e733 6bbd 3a2b 6639 b817 cc37 a6fe 9c3c
000000b0: 774b 4e3b 99db 593b 0b1d 13bc 2119 50ba
000000c0: ea3a 86ba 42c4 dcb9 06e0 033c f12d 27bc
000000d0: 9505 283a adad 7bbb b267 ceb4 8067 cb38
000000e0: 638c d737 9f02 9bb5 f5c4 b2ba caf7 f539
000000f0: f157 4a3b 7086 d0b9 1dd2 8ab7 4cf3 0e37
00000100: f679 eab6 ddb9 313a c4a5 9e38 c91f 35bb
00000110: edc5 34b6 9aad e83b f824 adbc 21a1 5937
00000120: ed16 ab3c 7093 0535 7280 3db6 3ebd e636
00000130: eb8b 2935 4eac 0136 f7e1 173b 4f19 c338
00000140: 1b66 e5b5 8c29 f837 3936 dc3b b709 903c
00000150: 18a7 fb35 8dbb 0ebb 8347 3338 e2dd 7bba
00000160: 2f74 b339 1c8a 74ba 001f 94b8 ac31 2639
00000170: c2a6 4fba 458d b1b8 59f5 89bb 008b afba
00000180: 1300 813b 68e4 223a aefc 2f3a 9445 153b
00000190: 9030 4fb5 6812 d3b7 4f96 3eb8 5e44 e6ba
000001a0: 447a a13a ab5b 6eb6 c452 cbba 678b 5c36
000001b0: b74b c5b6 9a34 6e35 625f 18ba d364 9eb7
000001c0: ac5c 183b 985c edbc 3bdd 5437 6d65 abbc
000001d0: 3e30 f0ba d26a 08b6 affc a53b 2449 b3b9
000001e0: 46fd 50b6 24ed c73a 378a fb3b ccba 3cb8
000001f0: 168a 3136 e189 8abc 2a8e bdbb 90b6 f6b7
00000200: d323 5cba f860 93b9 34e9 813b b553 df35
00000210: b8f9 623a a573 3437 cdfd 81b5 c873 97b6
00000220: d6d8 e037 00c4 4238 f998 fe3c 91aa c63a
00000230: 54ad ea3a 9883 7e3a 4364 7a37 3b88 ebb5
00000240: 9217 c739 3d37 0f3b 00db 6338 ba03 1f3b
00000250: f243 da3a 74ff f5b6 d1d2 11bc d5f2 38b7
00000260: b95c 553a f7d8 33b7 17b0 0d3a 6d1b 5a3a
00000270: 96e3 10bc 7a7c 0bb6 4d87 81bc 7a1e 99b9
00000280: fa47 253c 2d46 71bc 919c 00b7 f4b1 f134
00000290: c52a 40ba b795 b5b9 ac8f 7abb 0b0e 63b8
000002a0: cc8a 3d34 931f 43b6 4b90 3536 2bc9 303a
000002b0: c37a 8e37 e59b b1ba 98b7 a3ba e665 8eb9
000002c0: 9b26 cbb6 f0d3 9636 082a 12bb 844e 32bb
000002d0: 4087 063c 3bab 20b6 37bb b736 1273 92b8
000002e0: cc01 8b38 7a7f a8ba 2f23 10b9 dd11 fd35
000002f0: 8f1b d5b6 f8cd 2cbc 15cb 1e37 3554 5635
00000300: ff68 013b cbc7 d23b dbc9 4e38 25e3 dfbb
00000310: f848 82b6 3fe2 d638 002d 6035 c805 4cb6
00000320: d136 f2ba 7ab1 3c37 02e1 1037 e94b 5639
00000330: fa54 a8b8 bbe3 d53c 812a 4b3c ff9c a537
00000340: ab73 863a 0a31 4c3b bd0e 89bc dbae 8b3c
00000350: 073d d539 b1d8 a63a 80d5 03b6 2d4c 83b7
00000360: a426 0ab6 49c4 afbc a020 903a 1461 dd35
00000370: c64f 9637 2f5f d93b 3ed2 e13b f870 3a36
00000380: dbbb d1b5 300e 5638 5111 66bd 1ba9 0d3c
00000390: d58b 1738 6e76 f8bb 004e c639 fe2b 81bc
000003a0: 4f23 2537 babb 8e3a 27d4 883c b9cc 89b9
000003b0: 8abe b236 2039 1d36 199b 83bb 1e02 b039
000003c0: 2991 8c3b 363c 503c 3f28 88b9 bfed fe39
000003d0: b38b 943a cfc0 fd39 37e8 20bc a1be 81b7
000003e0: 2cd9 913b 8001 eb3a 4861 293a 9bb2 a53b
000003f0: ce80 febb 7b44 a2b6 89c1 a436 6cf9 253c
