checkpoints_data_small/yiseyb/checkpoint_baseline.pth (torch, 330330 bytes, 21 tensors)

module.conv1.weight f4 [64, 3, 3, 3]
00000000: f496 323e e862 bf3c 12e7 66bd 5697 2f3e
00000010: 9239 4cbc bbce b33d 879d b0bd 1692 27bc
00000020: 9dd7 bb3d e66f 313c 9763 dbbd 4269 d83d
00000030: 2248 9fbc 6e4b b3bd 478f 16bd 1728 463d
00000040: 3892 0c3d 46f3 b53b 4096 b9bd 6e73 89bd
00000050: 955a 78bb 7987 9fbd e2b4 2bbe 3ef2 e2bd
00000060: 9661 bc3c 8a45 8abd 1239 4d3d 88a0 d73d
00000070: 540c d63d ac37 70bd 3063 883d c8c7 20bc
00000080: f5c0 533c 84bb 33be 2706 263e f0c5 933d
00000090: d5ca 0e3e e5f5 aabd 46f3 273b 922e ad3d
000000a0: a503 3f3b 23bd 90bc d646 cabc 775d 903d
000000b0: 9f08 11be 828f dc3d 33e4 30be b35f 0cbe
000000c0: faf5 233e 152e e73d e2f0 10be a474 c3bd
000000d0: 5b0f 1f3e 348a e13d 9258 d43d 4b6b f7bd
000000e0: eaa5 8bbb 2e39 123d 1161 6f3d 528b 0e3e
000000f0: 2bf3 093e c7c7 3abe fb17 433e 8d73 08be
00000100: e43d 4ebd 5d10 053d bd9e 833c c531 0bbc
00000110: 8184 01bd 5a52 bbbd 41ce b4bd bdf2 9bbd
00000120: 5092 9c3d a21b 0a3d 80b1 163e 1e67 a8bd
00000130: 4b6b aabd 5ff3 a5bd 0c79 6f3d dcea 3d3d
00000140: d4cf 303e 71a7 c43d 0240 29be 87d2 4dbd
00000150: 4f87 d0bd 2ae6 1c3e 2eb5 88bd ba4f e53d
00000160: 7ff7 9e3c 9ffd cbbd 8795 4ebd dce5 0fbe
00000170: f910 ea3c 7063 12be 8142 43be 4e3b a03d
00000180: 0cfe 433b 6c8a c13c b1b7 e8bd 4005 39be
00000190: 0965 863d 18f4 373e 6178 b3bd 0d05 a4bc
000001a0: 0cf6 4f3c d28f 6abd f09a b3bd c142 adbd
000001b0: 5cb7 2dbe 04b6 f9bd fdd7 d6bd af09 51bd
000001c0: d988 1dbe 42eb 3fbe 0dc8 fabc cbec 42be
000001d0: 30bc 12bd cc0d 863d 1ce4 2b3e 746a 243e
000001e0: 9c9a b63d 3991 18be be5c 1e3e e464 3fbe
000001f0: bbc4 1dbd 9612 a13d 8c41 39be 5fd5 d53c
00000200: a8d2 90bd 7455 1c3e d5e9 133e 953b 073d
00000210: a953 ce3d bd04 02be fa87 f63d b2ed 4bbd
00000220: b548 b6bd 2097 7ebd f239 b53c b8be 73bd
00000230: e9ba 0a3d f149 243e a7c8 84bc 4e35 c9bd
00000240: 7232 94bd b0ee 173e 0bca d9bd 7074 0b3e
00000250: 46c6 8fbc 8aaf 07be 1cf3 11be 7ac0 7e3d
00000260: 9b80 063e 83a1 1dbc 4589 aebd fdc8 3d3e
00000270: b3f8 25be 5255 debd 4e2c 403e 6b2b 08be
00000280: 8fa2 01be a7ee fcbc e34e e2bd 668a 013d
00000290: 26be 10be 3795 87bd bac9 fcbd 6667 eebd
000002a0: c58f 0cbe c942 3e3d c678 ef3d 936a 9e3c
000002b0: d5cc de3d 4592 54bd b83b 15be a5ec 143e
000002c0: 3876 36be d10b f73c 7c38 68bd 2315 3dbe
000002d0: b4f1 09bd c1ef c43d 3d65 2c3e c2f0 f53d
000002e0: 8d5a 433e 6cda aebd eb63 863a 172a 26be
000002f0: 6f8e 13be c44a df3d 6a36 bd3d a899 3ebe
00000300: fbf7 0fbe 70c6 9d3d 13c5 acbd ddfc 4dbb
00000310: 34bd 8f3d df07 f03d 53f7 a1bc 9e3e bd3c
00000320: 014c 1a3e 84d8 c23c 50d0 cb3d 68be d8bd
00000330: e209 02be ff10 06bd 6b88 43be d77c af3d
00000340: e005 25bb 8d51 38be 0340 923b 7539 b4bd
00000350: 24a9 f5bd 708a aebc 146d 97bc 98b5 403d
00000360: 30e3 c3bd 3d9d 173d 928f cc3d 5db4 d1bd
00000370: 4312 be3c ab70 38bd 840f adbd da5e 12bd
00000380: 83fb dc3d 78e3 173e 7572 ab3d b0a6 c5bd
00000390: 2f9c 823d 84d9 733c bf5a 1cbe faeb 093d
000003a0: 21f1 193e 7f09 cbbc 1b98 68bd 9814 eabd
000003b0: 91ae 32be 6dbb 44be 416f 0cbe 431c 1abe
000003c0: ffea c33b 9f18 0fbe f6e6 76bd fc74 c1bd
000003d0: ba1b 333e 8872 3e3e 5b48 0ebe a384 1cbe
000003e0: 7665 d73d a7bb da3d 315f dcbd 7434 46bd
000003f0: c7d8 05bc 8793 17be 4f23 423e a252 ad3d
0.17440397 0.023362592 -0.05637271 0.17147574 -0.012464898 0.08779665 -0.08623796 -0.010227701
0.09171984 0.010829901 -0.10712355 0.10566951 -0.019443575 -0.087546214 -0.036757734 0.048378076
0.034319133 0.005552682 -0.09061861 -0.067114696 -0.0037895788 -0.07789511 -0.1676822 -0.1108136
0.022995751 -0.06751545 0.050103255 0.10528666 0.1045157 -0.058646843 0.066595435 -0.009813257
0.0129244225 -0.17552 0.16213284 0.07215488 0.13944562 -0.08347682 0.002562718 0.08456148
0.002914646 -0.017668312 -0.02469198 0.07049077 -0.14163445 0.107695594 -0.17274551 -0.13708381
0.16011801 0.11288086 -0.1415439 -0.09543732 0.15533201 0.11012688 0.10368456 -0.120810114
-0.004261722 0.035699062 0.05844218 0.13920334 0.13471667 -0.18240272 0.19052117 -0.13325329
-0.050351992 0.03248631 0.016066903 -0.008495753 -0.031620506 -0.09146567 -0.08828402 -0.07614658
0.076450944 0.03371776 0.14716148 -0.08222793 -0.08321246 -0.0810306 0.05846505 0.046366557
0.1726678 0.096022494 -0.16528323 -0.050249603 -0.10182058 0.15322176 -0.06675182 0.11196847
0.019405125 -0.09960484 -0.05043557 -0.14052528 0.028572546 -0.14295745 -0.19068338 0.078238115
0.0029906062 0.023625575 -0.11363161 -0.18068409 0.0656224 0.17964208 -0.08763195 -0.02002194
0.0126929395 -0.057266064 -0.08769786 -0.08459998 -0.16964477 -0.1219292 -0.10490415 -0.051034626
-0.15384234 -0.18742087 -0.03061297 -0.19035642 -0.035824 0.065456 0.16786236 0.16056234
0.08916208 -0.14899148 0.15465066 -0.1869083 -0.038517695 0.07864873 -0.1809141 0.02610272
-0.070714295 0.15266973 0.14444669 0.033015806 0.10074551 -0.1269712 0.12037654 -0.04978723
-0.089005865 -0.062155843 0.022122357 -0.059508055 0.033869658 0.16043831 -0.01620896 -0.0982462
-0.07236184 0.14837146 -0.1063424 0.13618636 -0.017550599 -0.13250557 -0.14252895 0.06219528
0.13134997 -0.009621027 -0.08522276 0.18533702 -0.16208152 -0.10856117 0.18766901 -0.13297813
-0.12659667 -0.030875517 -0.11050203 0.031626128 -0.14135036 -0.06620257 -0.12343164 -0.116408154
-0.13726719 0.04645041 0.116929576 0.019337928 0.10878912 -0.051897306 -0.14573562 0.14543398
-0.17818534 0.030157002 -0.056694493 -0.18465094 -0.03367777 0.09616042 0.16835494 0.120088115
0.19077511 -0.085377544 0.0010253167 -0.16226994 -0.14409803 0.10902932 0.09238894 -0.18613303
-0.14059441 0.077038646 -0.084360264 -0.0031431236 0.070185095 0.11720251 -0.019771254 0.023101147
0.15068056 0.023784883 0.09951842 -0.10583192 -0.12699082 -0.032731052 -0.19095008 0.08568733
-0.0025180504 -0.17999859 0.004463197 -0.088000216 -0.11995152 -0.021306247 -0.01848463 0.04704818
-0.09564817 0.03701519 0.09988321 -0.1023948 0.023202067 -0.045029324 -0.08450225 -0.03573499
0.107901596 0.14832866 0.0837144 -0.09650934 0.06377446 0.014883403 -0.15268992 0.03367231
0.1503339 -0.024784802 -0.056785684 -0.11429709 -0.17449404 -0.19212122 -0.13714315 -0.15049843
0.0059789415 -0.13974236 -0.060278855 -0.09446141 0.17491046 0.18598378 -0.13894789 -0.15284972
0.10517399 0.10680323 -0.10760344 -0.048389867 -0.0081693595 -0.14802371 0.18958782 0.084630266

module.conv1.bias f4 [64]
00000000: 611d 30bd 7257 0ebe 16e6 e83d c7fb 3fbe
00000010: 2481 07be 542e efbd 463a 193e 7f48 ca3d
00000020: cd71 033c f22a 303c 2862 a23d 5d70 90bd
00000030: b348 0f3c 1698 cabd ad68 c03d dc2d 22bd
00000040: 45d2 393d b30b ff3d 60d4 173e b9aa 053e
00000050: 90d1 cd3c 5363 bdbc dffb 6c3d a7de 94bd
00000060: 8db7 d53d a32f 69bd 6489 2cbe 1577 37bd
00000070: 5854 573d 68bb 283e 257d 3d3e 514a b0ba
00000080: a8ae fb3d d957 043e ba67 d4bd 6a48 1e3d
00000090: a8a1 373e 80c2 3ebe dc63 c33d a9d8 cbbd
000000a0: 8b8d 5d3c 595b 293d 0c27 b33d cf4f b1bc
000000b0: 7208 81bd e43b 033d 73a0 a53d f0c8 e63d
000000c0: 3863 9fbd 3c5d 23be 51c1 f13d 28df 123e
000000d0: eae2 35be 7a50 b43d 2c88 0abd 43b2 34be
000000e0: 42b8 d1bd 2b5f eabd 90d4 7a3d 341b 2b3e
000000f0: ca12 af3d a66e 103e 8643 363b 4028 f7bd
-0.042996768 -0.13900545 0.113720104 -0.18748389 -0.13232857 -0.11678758 0.14963636 0.09877109
0.008022738 0.010752426 0.07928878 -0.070526816 0.00874536 -0.09892289 0.09394965 -0.039594516
0.045366544 0.12453403 0.14827108 0.13053407 0.025124341 -0.02311865 0.05785739 -0.0726903
0.104354 -0.056930196 -0.16849285 -0.0447913 0.05257067 0.1647774 0.1850477 -0.0013449882
0.122891724 0.12924136 -0.10371347 0.03864328 0.1793276 -0.18628883 0.09540531 -0.09953434
0.013522516 0.04134688 0.08747682 -0.021644501 -0.06300439 0.032039538 0.08087244 0.112687945
-0.07782596 -0.15953535 0.1180445 0.1434294 -0.17762342 0.08804412 -0.03382127 -0.17646126
-0.102402225 -0.11443933 0.06123787 0.16709596 0.085485056 0.14104709 0.0027811243 -0.12068224

module.bn1.weight f4 [64]
00000000: 0000 803f 0000 803f 0000 803f 0000 803f
00000010: 0000 803f 0000 803f 0000 803f 0000 803f
00000020: 0000 803f 0000 803f 0000 803f 0000 803f
00000030: 0000 803f 0000 803f 0000 803f 0000 803f
00000040: 0000 803f 0000 803f 0000 803f 0000 803f
00000050: 0000 803f 0000 803f 0000 803f 0000 803f
00000060: 0000 803f 0000 803f 0000 803f 0000 803f
00000070: 0000 803f 0000 803f 0000 803f 0000 803f
00000080: 0000 803f 0000 803f 0000 803f 0000 803f
00000090: 0000 803f 0000 803f 0000 803f 0000 803f
000000a0: 0000 803f 0000 803f 0000 803f 0000 803f
000000b0: 0000 803f 0000 803f 0000 803f 0000 803f
000000c0: 0000 803f 0000 803f 0000 803f 0000 803f
000000d0: 0000 803f 0000 803f 0000 803f 0000 803f
000000e0: 0000 803f 0000 803f 0000 803f 0000 803f
000000f0: 0000 803f 0000 803f 0000 803f 0000 803f
1.0 1.0 1.0 1.0 1.0 1.0 1.0 1.0
1.0 1.0 1.0 1.0 1.0 1.0 1.0 1.0
1.0 1.0 1.0 1.0 1.0 1.0 1.0 1.0
1.0 1.0 1.0 1.0 1.0 1.0 1.0 1.0
1.0 1.0 1.0 1.0 1.0 1.0 1.0 1.0
1.0 1.0 1.0 1.0 1.0 1.0 1.0 1.0
1.0 1.0 1.0 1.0 1.0 1.0 1.0 1.0
1.0 1.0 1.0 1.0 1.0 1.0 1.0 1.0

module.bn1.bias f4 [64]
00000000: 0000 0000 0000 0000 0000 0000 0000 0000
00000010: 0000 0000 0000 0000 0000 0000 0000 0000
00000020: 0000 0000 0000 0000 0000 0000 0000 0000
00000030: 0000 0000 0000 0000 0000 0000 0000 0000
00000040: 0000 0000 0000 0000 0000 0000 0000 0000
00000050: 0000 0000 0000 0000 0000 0000 0000 0000
00000060: 0000 0000 0000 0000 0000 0000 0000 0000
00000070: 0000 0000 0000 0000 0000 0000 0000 0000
00000080: 0000 0000 0000 0000 0000 0000 0000 0000
00000090: 0000 0000 0000 0000 0000 0000 0000 0000
000000a0: 0000 0000 0000 0000 0000 0000 0000 0000
000000b0: 0000 0000 0000 0000 0000 0000 0000 0000
000000c0: 0000 0000 0000 0000 0000 0000 0000 0000
000000d0: 0000 0000 0000 0000 0000 0000 0000 0000
000000e0: 0000 0000 0000 0000 0000 0000 0000 0000
000000f0: 0000 0000 0000 0000 0000 0000 0000 0000
0.0 0.0 0.0 0.0 0.0 0.0 0.0 0.0
0.0 0.0 0.0 0.0 0.0 0.0 0.0 0.0
0.0 0.0 0.0 0.0 0.0 0.0 0.0 0.0
0.0 0.0 0.0 0.0 0.0 0.0 0.0 0.0
0.0 0.0 0.0 0.0 0.0 0.0 0.0 0.0
0.0 0.0 0.0 0.0 0.0 0.0 0.0 0.0
0.0 0.0 0.0 0.0 0.0 0.0 0.0 0.0
0.0 0.0 0.0 0.0 0.0 0.0 0.0 0.0

module.bn1.running_mean f4 [64]
00000000: 0000 0000 0000 0000 0000 0000 0000 0000
00000010: 0000 0000 0000 0000 0000 0000 0000 0000
00000020: 0000 0000 0000 0000 0000 0000 0000 0000
00000030: 0000 0000 0000 0000 0000 0000 0000 0000
00000040: 0000 0000 0000 0000 0000 0000 0000 0000
00000050: 0000 0000 0000 0000 0000 0000 0000 0000
00000060: 0000 0000 0000 0000 0000 0000 0000 0000
00000070: 0000 0000 0000 0000 0000 0000 0000 0000
00000080: 0000 0000 0000 0000 0000 0000 0000 0000
00000090: 0000 0000 0000 0000 0000 0000 0000 0000
000000a0: 0000 0000 0000 0000 0000 0000 0000 0000
000000b0: 0000 0000 0000 0000 0000 0000 0000 0000
000000c0: 0000 0000 0000 0000 0000 0000 0000 0000
000000d0: 0000 0000 0000 0000 0000 0000 0000 0000
000000e0: 0000 0000 0000 0000 0000 0000 0000 0000
000000f0: 0000 0000 0000 0000 0000 0000 0000 0000
0.0 0.0 0.0 0.0 0.0 0.0 0.0 0.0
0.0 0.0 0.0 0.0 0.0 0.0 0.0 0.0
0.0 0.0 0.0 0.0 0.0 0.0 0.0 0.0
0.0 0.0 0.0 0.0 0.0 0.0 0.0 0.0
0.0 0.0 0.0 0.0 0.0 0.0 0.0 0.0
0.0 0.0 0.0 0.0 0.0 0.0 0.0 0.0
0.0 0.0 0.0 0.0 0.0 0.0 0.0 0.0
0.0 0.0 0.0 0.0 0.0 0.0 0.0 0.0

module.bn1.running_var f4 [64]
00000000: 0000 803f 0000 803f 0000 803f 0000 803f
00000010: 0000 803f 0000 803f 0000 803f 0000 803f
00000020: 0000 803f 0000 803f 0000 803f 0000 803f
00000030: 0000 803f 0000 803f 0000 803f 0000 803f
00000040: 0000 803f 0000 803f 0000 803f 0000 803f
00000050: 0000 803f 0000 803f 0000 803f 0000 803f
00000060: 0000 803f 0000 803f 0000 803f 0000 803f
00000070: 0000 803f 0000 803f 0000 803f 0000 803f
00000080: 0000 803f 0000 803f 0000 803f 0000 803f
00000090: 0000 803f 0000 803f 0000 803f 0000 803f
000000a0: 0000 803f 0000 803f 0000 803f 0000 803f
000000b0: 0000 803f 0000 803f 0000 803f 0000 803f
000000c0: 0000 803f 0000 803f 0000 803f 0000 803f
000000d0: 0000 803f 0000 803f 0000 803f 0000 803f
000000e0: 0000 803f 0000 803f 0000 803f 0000 803f
000000f0: 0000 803f 0000 803f 0000 803f 0000 803f
1.0 1.0 1.0 1.0 1.0 1.0 1.0 1.0
1.0 1.0 1.0 1.0 1.0 1.0 1.0 1.0
1.0 1.0 1.0 1.0 1.0 1.0 1.0 1.0
1.0 1.0 1.0 1.0 1.0 1.0 1.0 1.0
1.0 1.0 1.0 1.0 1.0 1.0 1.0 1.0
1.0 1.0 1.0 1.0 1.0 1.0 1.0 1.0
1.0 1.0 1.0 1.0 1.0 1.0 1.0 1.0
1.0 1.0 1.0 1.0 1.0 1.0 1.0 1.0

module.conv2.weight f4 [64, 64, 3, 3]
00000000: 40e5 38bc ab8c 1b3b 80b0 593b 0070 4fbb
00000010: 866d 1f3c 00f3 8f3c e8c2 88bc 97f0 0ebd
00000020: 58ca dbbc a058 1e3c 2005 8f3b 3678 ad3b
00000030: b88a 163d 1e16 273d 7b4c 06bc 888e 003d
00000040: 768c f0bc 06ec ad3c 840d 2abd 56ed e139
00000050: 18a1 f1bc bb77 873c 5a29 1b3d 1666 013d
00000060: bbb8 50bc fbd9 0abd cb20 e1bb e6cd 153d
00000070: 9c88 223d ac3e 273d 20fc babb 80d6 143d
00000080: c084 253c 4615 d93c 3bc3 21bd 8b51 c3bb
00000090: 78c1 ca3c 9ed6 9a3c 4042 823c fbf3 18bc
000000a0: 3ece 1dbd 6b5e 6d3c 9b5b efbc 00b8 2bbc
000000b0: 0eb7 f5bc 98ef e1bc b69e 993c 9cde 27bd
000000c0: eb3c 18bc c032 733b c6eb 05bd 407f 2b3b
000000d0: abd8 f2bc 0b45 a8bb 26ed 053c c021 213c
000000e0: f6eb d93c 400a 113d 1aed 08bd a3a1 193d
000000f0: 1ff2 29bd b061 063c 9fb6 07bd 20c0 9bbc
00000100: 3bcd 2cbc b880 293d 4bf9 adbb c650 253c
00000110: 0b53 bebc 8023 84bc a6d0 4b3c 3f28 2abd
00000120: ebf0 5b3b a00b a2bc 96ce 0abd 56a9 d7b9
00000130: e6cd 453c 4836 c6bc 1e56 b7bc d3cb bebc
00000140: 80e2 1f3b 6831 2a3d 078f 283d b288 28bd
00000150: c345 e33c 034b e73c 63a8 8a3c ab34 a639
00000160: c33c fabc 7251 283d 27c8 263d 1e07 cd3c
00000170: cf6c 20bd 5879 e53c c0aa c33b 44c6 073d
00000180: e344 1bbd 8b27 273c 1665 46bb a37a e7bc
00000190: 4b5b bf3b 1b4c 913c 5cc9 06bd b689 95bc
000001a0: 9392 8ebc 38b6 9abc c020 173c 9bd5 a9bc
000001b0: bb55 80bc 084f adbc 4076 ef3b c076 ca3c
000001c0: e024 c03b 46a5 103c b309 973c 8b85 4e3c
000001d0: 5600 ddbb 26a5 383c 560a 3a3b b099 053d
000001e0: 730e a13c 280a 243d 585d 233d 7083 2cbc
000001f0: 5613 963a 2695 873c ab4a 6d3c a660 24bd
00000200: a3a4 253d 4342 f7bc 261b 5fbc d031 fe3c
00000210: e08a 1dbd 8e7d b9bc f6ad e93b 4f89 253d
00000220: 78fb c3bc e65e ce3c c6e6 4abc 00d1 113a
00000230: 4c7d 1ebd 9edb b5bc 7b45 47bc b069 543c
00000240: 4f89 223d ab4c 253d bab2 033d 5edb a83c
00000250: bbfa 11bd c82d b2bc b05e 95bc 603d 7c3c
00000260: 7b98 293d 801c 243b bb12 483c 57d2 0e3d
00000270: eb62 75bb e3ec d63c 6bb7 50bb 1879 0b3d
00000280: 9353 163d b01d 3bbc 16f0 2c3b d62e 473b
00000290: 9027 4d3c 0001 d43b 963d 30bb 287c 1fbd
000002a0: 4b71 003c 80c4 b7ba 562d 1439 16b5 20bc
000002b0: 83d2 893c 40fe 38bc d0a9 1fbc 823b 143d
000002c0: 0047 dfba 0048 32bb f21a 113d 801d eebc
000002d0: 807c 57bb 6462 033d 98f3 103d e06d ce3b
000002e0: 7b5d 0cbd 7664 243c eba2 363c a84c bbbc
000002f0: 1609 04bd 3654 c1bb 363b 0d3d 3bf4 be3c
00000300: b445 05bd 76b7 19bc 9fcc 1abd 6ba6 6b3b
00000310: dfd0 1e3d 7b1d 26bc 583f 2a3d ab4e cbb9
00000320: 8a20 0a3d 18d6 8dbc 0092 093d eb45 44bb
00000330: 80a4 053d 03f9 ab3c 1682 023c b30f d93c
00000340: 26c9 38bc 88df 20bd a389 ff3c b67c 96bc
00000350: 66ca 1d3c 28fb f43c 9e21 133d bcb5 123d
00000360: b695 2abc 16a3 c9bc 5ac0 0cbd 7b7e 0fbc
00000370: 16c3 173c d613 863c ba21 28bd 80e3 e23a
00000380: abb8 f93c 2b7f a4ba 9791 213d f0b8 143d
00000390: 3e2a 95bc b732 063d ff67 043d f81a 9f3c
000003a0: 006e 2fbc 36b3 823c 401a 9abb 962a 3a3b
000003b0: 00ba 633b 169b 98bb 6006 57bc 433c 1b3d
000003c0: 90db a3bc 63fe e03c 3688 e23c eb94 683b
000003d0: f079 7a3c 532f 223d f6e5 073d 1879 d3bc
000003e0: 3b4f 0dbd ff93 01bd 2836 cc3c 566e 123b
000003f0: c0de e5bb f623 2a3d 22ca 1a3d 7673 603c
-0.011285126 0.0023734968 0.0033216774 -0.003165245 0.009730702 0.017571926 -0.016694501 -0.034897413
-0.026829883 0.0096646845 0.0043646246 0.0052938713 0.036753386 0.040792577 -0.008196945 0.03138593
-0.029363852 0.021230709 -0.041516796 0.00043092173 -0.02949576 0.016536584 0.037881233 0.031591497
-0.012739356 -0.03389929 -0.0068703643 0.036573313 0.039681062 0.040831253 -0.005706325 0.036337376
0.010102451 0.026499402 -0.039492827 -0.0059606484 0.024750456 0.018901166 0.015900731 -0.009335513
-0.038526766 0.014487843 -0.029218486 -0.010480881 -0.029994514 -0.027580068 0.018752437 -0.04098378
-0.009291868 0.0037109107 -0.032695554 0.0026168376 -0.029644331 -0.0051351837 0.008174216 0.009834707
0.026601773 0.035410166 -0.033429243 0.037507664 -0.04149067 0.008202001 -0.033133145 -0.01901251
-0.010546978 0.04138252 -0.005309259 0.010090059 -0.023232957 -0.016130209 0.012439882 -0.041542288
0.0033560346 -0.019780934 -0.033888422 -0.0004113416 0.012073016 -0.024195805 -0.022379931 -0.02329055
0.002439648 0.041551024 0.041152027 -0.041145988 0.027743226 0.02823401 0.016925996 0.00031701228
-0.030546552 0.041093297 0.040718224 0.025027808 -0.039166268 0.028011963 0.0059712827 0.033148065
-0.037907492 0.010202299 -0.0030272654 -0.02825672 0.0058397404 0.017736485 -0.032906875 -0.018254142
-0.017403876 -0.018885717 0.009224117 -0.020731738 -0.01566588 -0.02115585 0.0073077977 0.024714828
0.005863771 0.008828467 0.018437242 0.012605081 -0.006744425 0.011269843 0.0028387508 0.03261727
0.01966021 0.04004875 0.03988394 -0.010529384 0.0011449854 0.016550612 0.014483134 -0.040131234
0.040440213 -0.030182963 -0.013617313 0.031029612 -0.03846252 -0.022642877 0.0071313335 0.04041415
-0.02392362 0.025191735 -0.012384122 0.00055624545 -0.03869371 -0.022199448 -0.0121625615 0.012964651
0.03968173 0.04035632 0.03215287 0.020612415 -0.035639506 -0.021750346 -0.018233627 0.015395492
0.041405182 0.0025041401 0.012211497 0.034868564 -0.0037442993 0.026236003 -0.0031847607 0.03405103
0.036700796 -0.011420652 0.002638822 0.0030392907 0.0125216395 0.006469846 -0.0026892177 -0.038936764
0.007839511 -0.0014020354 0.00014131269 -0.009808799 0.016824013 -0.011291087 -0.009745076 0.036189564
-0.001703471 -0.002720356 0.035426088 -0.029066801 -0.0032880604 0.032076254 0.03538856 0.006299719
-0.034268837 0.010033717 0.011147241 -0.022863701 -0.032235228 -0.0058999313 0.034480296 0.023309818
-0.032537177 -0.009382119 -0.037792798 0.0035957347 0.038773414 -0.010138865 0.041564316 -0.0003877779
0.033722438 -0.017314002 0.033586502 -0.00299489 0.032627583 0.020992761 0.007965585 0.026496744
-0.011278426 -0.039275676 0.03119356 -0.018370014 0.009630775 0.029904917 0.03592073 0.035817847
-0.01041167 -0.024613898 -0.03436313 -0.008758183 0.009262821 0.01636688 -0.04104779 0.0017310232
0.030483564 -0.0012550106 0.039445486 0.036309183 -0.01820862 0.03276321 0.03232574 0.01942204
-0.010707378 0.015954595 -0.0047028363 0.002840673 0.0034748316 -0.0046571596 -0.0131240785 0.037899267
-0.020002156 0.027465051 0.027652841 0.0035489153 0.015287861 0.039595913 0.033178292 -0.025814578
-0.03449939 -0.03163528 0.024928167 0.0022343597 -0.0070150793 0.0415382 0.037790425 0.013699403

module.conv2.bias f4 [64]
00000000: 2858 81bc 739a ab3c 400c 923b 06ef cabc
00000010: f040 093d c841 c83c 7a80 033d a0ec 7d3c
00000020: eb6d 9d3c c0c2 24bb eb8b 1d3d b06b 143c
00000030: f055 9abc f8f7 ecbc 9bab 6b3c 24cc 093d
00000040: 760a e83c 785b abbc 4061 eebc ce92 f0bc
00000050: 203a 17bd 4007 233d 1edd 21bd f3ab 83bc
00000060: 3ee1 b3bc 0009 da3a 40a3 1cbb 08a9 943c
00000070: 1b23 6c3c 63ad f7bc a04d 90bc a637 1f3c
00000080: 2bec 0fbb 72a1 1bbd 64da 283d becf fe3c
00000090: 4a04 25bd c06e 50bb a6ef 443c 38c4 b1bc
000000a0: a0cd 9fbc 663a 1dbc 0031 1cbc f05c 91bc
000000b0: b623 f8bb 00d0 af38 7e47 dbbc 68ec d13c
000000c0: 2b7e 883c b61c 74bc 6b1a 21bc 4611 bc3c
000000d0: 68e9 9cbc 20fc a73c 2866 803c beb5 9b3c
000000e0: d758 193d 7844 95bc 9030 c5bc 2046 cebc
000000f0: 46cd 1d3d b00a 593c 4fbe 033d b8cc d8bc
-0.015789106 0.02094767 0.0044570267 -0.024772178 0.033509195 0.02444543 0.032104947 0.01549831
0.019217452 -0.0025140494 0.038463514 0.009058878 -0.018839806 -0.028926834 0.014384176 0.03364195
0.0283253 -0.02091764 -0.029099107 -0.029366877 -0.036920667 0.039801836 -0.039517514 -0.016073203
-0.02195799 0.0016634762 -0.0023901016 0.018147007 0.014412667 -0.030234044 -0.01761514 0.009717857
-0.0021960835 -0.037995763 0.0412239 0.031104919 -0.040287293 -0.0031804293 0.012020027 -0.02170001
-0.01950723 -0.009596443 -0.009533167 -0.017744511 -0.0075726165 8.383393e-05 -0.026767489 0.025625423
0.016661724 -0.014899423 -0.009832959 0.022957455 -0.019154266 0.020505965 0.015673712 0.01900756
0.03743824 -0.018221125 -0.024071008 -0.025179923 0.038525842 0.013247177 0.032163914 -0.026464805

module.bn2.weight f4 [64]
00000000: 0000 803f 0000 803f 0000 803f 0000 803f
00000010: 0000 803f 0000 803f 0000 803f 0000 803f
00000020: 0000 803f 0000 803f 0000 803f 0000 803f
00000030: 0000 803f 0000 803f 0000 803f 0000 803f
00000040: 0000 803f 0000 803f 0000 803f 0000 803f
00000050: 0000 803f 0000 803f 0000 803f 0000 803f
00000060: 0000 803f 0000 803f 0000 803f 0000 803f
00000070: 0000 803f 0000 803f 0000 803f 0000 803f
00000080: 0000 803f 0000 803f 0000 803f 0000 803f
00000090: 0000 803f 0000 803f 0000 803f 0000 803f
000000a0: 0000 803f 0000 803f 0000 803f 0000 803f
000000b0: 0000 803f 0000 803f 0000 803f 0000 803f
000000c0: 0000 803f 0000 803f 0000 803f 0000 803f
000000d0: 0000 803f 0000 803f 0000 803f 0000 803f
000000e0: 0000 803f 0000 803f 0000 803f 0000 803f
000000f0: 0000 803f 0000 803f 0000 803f 0000 803f
1.0 1.0 1.0 1.0 1.0 1.0 1.0 1.0
1.0 1.0 1.0 1.0 1.0 1.0 1.0 1.0
1.0 1.0 1.0 1.0 1.0 1.0 1.0 1.0
1.0 1.0 1.0 1.0 1.0 1.0 1.0 1.0
1.0 1.0 1.0 1.0 1.0 1.0 1.0 1.0
1.0 1.0 1.0 1.0 1.0 1.0 1.0 1.0
1.0 1.0 1.0 1.0 1.0 1.0 1.0 1.0
1.0 1.0 1.0 1.0 1.0 1.0 1.0 1.0

module.bn2.bias f4 [64]
00000000: 0000 0000 0000 0000 0000 0000 0000 0000
00000010: 0000 0000 0000 0000 0000 0000 0000 0000
00000020: 0000 0000 0000 0000 0000 0000 0000 0000
00000030: 0000 0000 0000 0000 0000 0000 0000 0000
00000040: 0000 0000 0000 0000 0000 0000 0000 0000
00000050: 0000 0000 0000 0000 0000 0000 0000 0000
00000060: 0000 0000 0000 0000 0000 0000 0000 0000
00000070: 0000 0000 0000 0000 0000 0000 0000 0000
00000080: 0000 0000 0000 0000 0000 0000 0000 0000
00000090: 0000 0000 0000 0000 0000 0000 0000 0000
000000a0: 0000 0000 0000 0000 0000 0000 0000 0000
000000b0: 0000 0000 0000 0000 0000 0000 0000 0000
000000c0: 0000 0000 0000 0000 0000 0000 0000 0000
000000d0: 0000 0000 0000 0000 0000 0000 0000 0000
000000e0: 0000 0000 0000 0000 0000 0000 0000 0000
000000f0: 0000 0000 0000 0000 0000 0000 0000 0000
0.0 0.0 0.0 0.0 0.0 0.0 0.0 0.0
0.0 0.0 0.0 0.0 0.0 0.0 0.0 0.0
0.0 0.0 0.0 0.0 0.0 0.0 0.0 0.0
0.0 0.0 0.0 0.0 0.0 0.0 0.0 0.0
0.0 0.0 0.0 0.0 0.0 0.0 0.0 0.0
0.0 0.0 0.0 0.0 0.0 0.0 0.0 0.0
0.0 0.0 0.0 0.0 0.0 0.0 0.0 0.0
0.0 0.0 0.0 0.0 0.0 0.0 0.0 0.0

module.bn2.running_mean f4 [64]
00000000: 0000 0000 0000 0000 0000 0000 0000 0000
00000010: 0000 0000 0000 0000 0000 0000 0000 0000
00000020: 0000 0000 0000 0000 0000 0000 0000 0000
00000030: 0000 0000 0000 0000 0000 0000 0000 0000
00000040: 0000 0000 0000 0000 0000 0000 0000 0000
00000050: 0000 0000 0000 0000 0000 0000 0000 0000
00000060: 0000 0000 0000 0000 0000 0000 0000 0000
00000070: 0000 0000 0000 0000 0000 0000 0000 0000
00000080: 0000 0000 0000 0000 0000 0000 0000 0000
00000090: 0000 0000 0000 0000 0000 0000 0000 0000
000000a0: 0000 0000 0000 0000 0000 0000 0000 0000
000000b0: 0000 0000 0000 0000 0000 0000 0000 0000
000000c0: 0000 0000 0000 0000 0000 0000 0000 0000
000000d0: 0000 0000 0000 0000 0000 0000 0000 0000
000000e0: 0000 0000 0000 0000 0000 0000 0000 0000
000000f0: 0000 0000 0000 0000 0000 0000 0000 0000
0.0 0.0 0.0 0.0 0.0 0.0 0.0 0.0
0.0 0.0 0.0 0.0 0.0 0.0 0.0 0.0
0.0 0.0 0.0 0.0 0.0 0.0 0.0 0.0
0.0 0.0 0.0 0.0 0.0 0.0 0.0 0.0
0.0 0.0 0.0 0.0 0.0 0.0 0.0 0.0
0.0 0.0 0.0 0.0 0.0 0.0 0.0 0.0
0.0 0.0 0.0 0.0 0.0 0.0 0.0 0.0
0.0 0.0 0.0 0.0 0.0 0.0 0.0 0.0

module.bn2.running_var f4 [64]
00000000: 0000 803f 0000 803f 0000 803f 0000 803f
00000010: 0000 803f 0000 803f 0000 803f 0000 803f
00000020: 0000 803f 0000 803f 0000 803f 0000 803f
00000030: 0000 803f 0000 803f 0000 803f 0000 803f
00000040: 0000 803f 0000 803f 0000 803f 0000 803f
00000050: 0000 803f 0000 803f 0000 803f 0000 803f
00000060: 0000 803f 0000 803f 0000 803f 0000 803f
00000070: 0000 803f 0000 803f 0000 803f 0000 803f
00000080: 0000 803f 0000 803f 0000 803f 0000 803f
00000090: 0000 803f 0000 803f 0000 803f 0000 803f
000000a0: 0000 803f 0000 803f 0000 803f 0000 803f
000000b0: 0000 803f 0000 803f 0000 803f 0000 803f
000000c0: 0000 803f 0000 803f 0000 803f 0000 803f
000000d0: 0000 803f 0000 803f 0000 803f 0000 803f
000000e0: 0000 803f 0000 803f 0000 803f 0000 803f
000000f0: 0000 803f 0000 803f 0000 803f 0000 803f
1.0 1.0 1.0 1.0 1.0 1.0 1.0 1.0
1.0 1.0 1.0 1.0 1.0 1.0 1.0 1.0
1.0 1.0 1.0 1.0 1.0 1.0 1.0 1.0
1.0 1.0 1.0 1.0 1.0 1.0 1.0 1.0
1.0 1.0 1.0 1.0 1.0 1.0 1.0 1.0
1.0 1.0 1.0 1.0 1.0 1.0 1.0 1.0
1.0 1.0 1.0 1.0 1.0 1.0 1.0 1.0
1.0 1.0 1.0 1.0 1.0 1.0 1.0 1.0

module.conv3.weight f4 [64, 64, 3, 3]
00000000: 9799 0d3d 0614 acbc 9380 c23c ab34 22bc
00000010: 7bf5 adbc bb34 3fbc fbc2 4d3c 90ca 933c
00000020: f073 a23c ca8c 0abd 808a c63b abd4 63bc
00000030: 2716 263d 7054 2f3c d6e7 7bbc f81c f23c
00000040: 76ed e8bc 6353 a2bc 566e 21ba d349 a9bc
00000050: 884a d43c d630 8aba fb1f 1a3d b024 bebc
00000060: 9319 96bc 43ca 18bd 437b db3c a003 5ebc
00000070: 22bc 27bd f0e9 663c db22 60bc a6eb 9c3c
00000080: fa16 003d bb13 0bbc eb69 a4bc ffd8 083d
00000090: 2bcc 113c 8bb0 da3b abed 81bb 2c07 123d
000000a0: d37c dc3c c678 c53c a3b5 9b3c c24c 173d
000000b0: c014 163c 6bdd 563c b646 c9bb 2bce 14bc
000000c0: a8bf 18bd 70da 4bbc 6815 1e3d 4af2 253d
000000d0: a8f8 b73c 2a15 05bd fb1f 183d c6dc 613c
000000e0: 76a5 6a3c 00f1 d13b f8fa a63c 16c0 7cbc
000000f0: dff4 17bd dbb2 353c 56f6 513b 141e 0ebd
00000100: d64c d9bc 9815 9c3c 1f2e 183d d391 ddbc
00000110: 0f50 293d 53bc 9cbc 5673 a139 9058 d73c
00000120: 36fb 373c 6b65 6d3c 468b ce3c fccd 103d
00000130: 4bbd 39bc 00a4 d23c e663 523c 53e7 eb3c
00000140: 8ba7 2c3c 1635 33bb d01c b8bc d6e6 35bb
00000150: 46a7 c0bc 6383 893c 6baa 65bc d32e fd3c
00000160: fe19 d4bc dbeb ae3c 8e16 193d c0c9 dcbc
00000170: 7b65 39bc e6e1 12bc c7a1 163d 88b3 23bd
00000180: 1001 84bc 1634 123b f6ea 4fbc 9cff 1c3d
00000190: 6360 c43c 20f5 7d3c d690 de3a 236b b43c
000001a0: 3616 f33c 6339 bc3c e02f c8bc a0a4 fb3b
000001b0: dea3 183d 76e0 0cbc 13e5 d53c 8855 c0bc
000001c0: 3efa 8c3c cb02 b0bb 90b7 1a3d e405 0a3d
000001d0: 967b cc3b d6d1 583c 1b09 193d 8375 8a3c
000001e0: 1e4a e4bc 80e9 9f3c f7cf 283d 4e36 1f3d
000001f0: 7ec6 823c 2039 0a3d c041 003c 7e22 193d
00000200: d377 d5bc 5423 0c3d a302 073d 0090 6439
00000210: 1015 cb3c 8b0f fabb 827d 093d 134b 8abc
00000220: 486c 9cbc 1bfc 5cbc 73c3 053d a032 77bc
00000230: 6655 a33c 4ea9 a8bc 36b4 27bd f0d9 7d3c
00000240: 63e7 1b3d a0bd 013d 5b05 54bc 9660 69bc
00000250: 00d2 1cba eb06 31bb b31e 233d bb6e 31bc
00000260: 37be 28bd 06af c23c 3bec 843c 331d f23c
00000270: 3b37 46bc 0037 2fba b695 a8bb 9647 d2bc
00000280: 80d6 c4bc f3c7 e0bc 2ec9 22bd 60b5 5bbc
00000290: 4c98 0f3d 96ac a1bc 8023 f33b cec8 b5bc
000002a0: e396 d73c 80fb cdba 1256 1f3d 4b08 09bd
000002b0: 46ae 153d 8633 debc 2368 18bd 20b3 353c
000002c0: 4613 d23c d68a 6fbc 33a8 86bc 80ac 483b
000002d0: 4b99 1cbd ab79 403a 5beb 4dbc 6b76 eabb
000002e0: 96f3 173c fe08 823c 9c02 173d b499 04bd
000002f0: db37 cf3c 069d 9c3c 8b77 de3c e343 cdbc
00000300: d280 1e3d a004 1f3c 807a 05bc f723 0b3d
00000310: 4684 12bc db99 0cbc 6be6 243b aecd 14bd
00000320: 607a cabc fbd7 0cbd a677 db3c 0025 59ba
00000330: 8623 cd3c b854 bb3c f3c9 933c 5616 12ba
00000340: 16ec 61bc ceb2 febc ded5 b63c 1358 9bbc
00000350: 40d2 f6bc 5635 f2b8 8baa e03c c65a ba3c
00000360: fbd8 bcbc 4009 eb3c e0ff 4cbc 7848 ffbc
00000370: 5ec5 853c 6bc3 2f3c 86a8 443c de35 f4bc
00000380: 0038 24bb 60ed f7bc 33c9 e1bc 3e6d 80bc
00000390: 03da bcbc 46a5 dabc fbe7 033d abe4 3dbb
000003a0: a0d1 18bc e0a9 a0bc 4695 053c bee8 d6bc
000003b0: ae55 9d3c 7629 473c 366a b7bb ae9c 29bd
000003c0: 3e8f 293d e0f6 ebbb 1b50 d33c 20e3 a83b
000003d0: f60e 143d bf42 1f3d 8b80 9fbc 6b7c 143d
000003e0: 3840 033d cbc5 debc 58c9 0fbd 6623 06bc
000003f0: eb53 f4bc 2645 173c 7847 1cbd bb21 b63c
0.034570303 -0.021005642 0.02374295 -0.009900252 -0.021235218 -0.011670287 0.012558694 0.018040925
0.019830674 -0.033825673 0.006058991 -0.013905684 0.04054847 0.010701284 -0.015375098 0.029554829
-0.028433543 -0.019815153 -0.0006158104 -0.020665085 0.025914446 -0.0010543119 0.037628155 -0.023210853
-0.018322742 -0.037302267 0.026792174 -0.013550669 -0.0409509 0.014093861 -0.013680185 0.019155335
0.031271912 -0.008488591 -0.020070037 0.03341007 0.008898775 0.0066738776 -0.0039651 0.03565137
0.02691499 0.02410544 0.01900751 0.036938436 0.009160221 0.013114314 -0.0061424626 -0.009082357
-0.037292153 -0.012442216 0.038594633 0.040514268 0.022457436 -0.032490887 0.037139874 0.013785547
0.0143216755 0.0064069033 0.020383343 -0.015426656 -0.03709876 0.011090006 0.0032037697 -0.034696653
-0.026525896 0.019053265 0.03715336 -0.027047073 0.041336115 -0.019132769 0.00030794245 0.026287347
0.011229327 0.014489512 0.025212895 0.035352692 -0.011336635 0.025712967 0.0128412 0.028796827
0.010537992 -0.0027344874 -0.022474676 -0.0027755997 -0.023517262 0.016786283 -0.014017682 0.030906117
-0.0258913 0.021352699 0.037375025 -0.02695167 -0.011315699 -0.008964991 0.036775377 -0.039966136
-0.016113788 0.0022308878 -0.012690296 0.038329706 0.023971742 0.015500337 0.001698042 0.022023743
0.029673677 0.022976583 -0.024436891 0.007679537 0.03726565 -0.0085984375 0.026110208 -0.023478284
0.017209169 -0.0053714267 0.037772715 0.033697024 0.0062403185 0.013233623 0.0373622 0.016901737
-0.027867373 0.019520521 0.041213956 0.03887015 0.01596379 0.033745885 0.007828176 0.03738641
-0.026058113 0.03421338 0.0329615 0.00021797419 0.024790317 -0.0076312474 0.03356696 -0.016881501
-0.019094601 -0.013487841 0.032657098 -0.0150877535 0.019938182 -0.020588543 -0.040943347 0.015493855
0.038062464 0.03167498 -0.01294073 -0.014244219 -0.000598222 -0.002701218 0.0398242 -0.010829623
-0.041197028 0.023765098 0.016225925 0.029554939 -0.012098129 -0.0006683916 -0.0051448 -0.0256689
-0.024028063 -0.027439093 -0.03974264 -0.013409942 0.03505735 -0.019735616 0.0074200034 -0.022190478
0.026317066 -0.0015715212 0.038900442 -0.033455174 0.036543153 -0.027124178 -0.037208688 0.01109007
0.025643956 -0.014620503 -0.016437626 0.0030620396 -0.03823213 0.00073423487 -0.01256832 -0.00715523
0.009274384 0.015873428 0.036867723 -0.032373145 0.025295189 0.019117843 0.027156612 -0.025056785
0.03869707 0.0097056925 -0.008146882 0.033969846 -0.008942669 -0.008581604 0.0025161754 -0.036328964
-0.024716556 -0.034385663 0.026790451 -0.00082834065 0.025041353 0.022867545 0.018040633 -0.00055727863
-0.013789197 -0.03109112 0.022318777 -0.018962895 -0.030129552 -0.00011549394 0.027425071 0.022748362
-0.023052683 0.028690934 -0.012512177 -0.031162485 0.016329464 0.010727744 0.01200307 -0.029810842
-0.0025057793 -0.030264556 -0.02756176 -0.01567709 -0.023053175 -0.026690137 0.032203656 -0.0028975408
-0.009327322 -0.019612253 0.008153265 -0.026234027 0.019205894 0.012155881 -0.005597378 -0.041409187
0.041396372 -0.0072010607 0.025795033 0.0051540285 0.03614708 0.038882013 -0.019470474 0.036251467
0.032043666 -0.027193924 -0.035104126 -0.008187151 -0.029825171 0.009232795 -0.038154095 0.02223288

module.conv3.bias f4 [64]
00000000: 0b33 79bc b08e 093d 4bb7 39bc 7085 89bc
00000010: 5732 063d 90aa e2bc 4e1d ad3c 1085 55bc
00000020: 4b44 973c 5b0d bf3c d09a 353c 364c b4bc
00000030: 560d 16bc 7e15 95bc 433b 0ebd 2f30 2abd
00000040: 726a 27bd e0da 70bc 3856 c2bc 20a7 fc3b
00000050: 5c4f 023d 4ee3 d43c 88ac c93c be73 023d
00000060: 401b 2cbb 988d 89bc 60d2 cf3c a615 ea3c
00000070: 4701 163d d037 11bd 2b1e 4b3c 18a4 103d
00000080: cbaf 233d 40b2 ae3c d6dd b73b 5664 9e3c
00000090: d620 e53b 800f 69bc ab8b beba 560f 4e3b
000000a0: 0039 b23c 56ab b7ba 5048 e53c b0a4 e7bc
000000b0: 5611 f23b d3f4 aebc 00a4 f33b 1b8f 86bc
000000c0: 989d 1e3d 18ad cfbc 7b38 d3bc 3611 10bd
000000d0: 2b8d 603b 2068 023c 684f 8fbc de40 00bd
000000e0: 0093 81bc a6fa ffbc 7b7b d2bc fe3e d33c
000000f0: eb91 93bc 14dc 1c3d 1e57 bebc 5082 22bc
-0.0152099235 0.033583343 -0.011335204 -0.01678726 0.03276285 -0.027669221 0.021132138 -0.013032213
0.018465182 0.023321798 0.011084273 -0.022008996 -0.009158453 -0.018198725 -0.034724485 -0.041549858
-0.040873 -0.014700621 -0.023722753 0.0077103525 0.031813964 0.025987294 0.024618402 0.03184866
-0.002626136 -0.01679115 0.02536887 0.028574776 0.036622312 -0.035453618 0.012397329 0.035312742
0.03996257 0.02132523 0.0056111617 0.019334953 0.0069924397 -0.014224887 -0.0014537474 0.0031442246
0.021755695 -0.0014012854 0.027988583 -0.028276771 0.0073873205 -0.021356976 0.007435322 -0.01642566
0.03872451 -0.025351092 -0.025783768 -0.035172664 0.003426383 0.007959396 -0.017493919 -0.031311862
-0.015817165 -0.031247448 -0.025693646 0.025786873 -0.018013915 0.03829582 -0.0232349 -0.009918764

module.bn3.weight f4 [64]
00000000: 0000 803f 0000 803f 0000 803f 0000 803f
00000010: 0000 803f 0000 803f 0000 803f 0000 803f
00000020: 0000 803f 0000 803f 0000 803f 0000 803f
00000030: 0000 803f 0000 803f 0000 803f 0000 803f
00000040: 0000 803f 0000 803f 0000 803f 0000 803f
00000050: 0000 803f 0000 803f 0000 803f 0000 803f
00000060: 0000 803f 0000 803f 0000 803f 0000 803f
00000070: 0000 803f 0000 803f 0000 803f 0000 803f
00000080: 0000 803f 0000 803f 0000 803f 0000 803f
00000090: 0000 803f 0000 803f 0000 803f 0000 803f
000000a0: 0000 803f 0000 803f 0000 803f 0000 803f
000000b0: 0000 803f 0000 803f 0000 803f 0000 803f
000000c0: 0000 803f 0000 803f 0000 803f 0000 803f
000000d0: 0000 803f 0000 803f 0000 803f 0000 803f
000000e0: 0000 803f 0000 803f 0000 803f 0000 803f
000000f0: 0000 803f 0000 803f 0000 803f 0000 803f
1.0 1.0 1.0 1.0 1.0 1.0 1.0 1.0
1.0 1.0 1.0 1.0 1.0 1.0 1.0 1.0
1.0 1.0 1.0 1.0 1.0 1.0 1.0 1.0
1.0 1.0 1.0 1.0 1.0 1.0 1.0 1.0
1.0 1.0 1.0 1.0 1.0 1.0 1.0 1.0
1.0 1.0 1.0 1.0 1.0 1.0 1.0 1.0
1.0 1.0 1.0 1.0 1.0 1.0 1.0 1.0
1.0 1.0 1.0 1.0 1.0 1.0 1.0 1.0

module.bn3.bias f4 [64]
00000000: 0000 0000 0000 0000 0000 0000 0000 0000
00000010: 0000 0000 0000 0000 0000 0000 0000 0000
00000020: 0000 0000 0000 0000 0000 0000 0000 0000
00000030: 0000 0000 0000 0000 0000 0000 0000 0000
00000040: 0000 0000 0000 0000 0000 0000 0000 0000
00000050: 0000 0000 0000 0000 0000 0000 0000 0000
00000060: 0000 0000 0000 0000 0000 0000 0000 0000
00000070: 0000 0000 0000 0000 0000 0000 0000 0000
00000080: 0000 0000 0000 0000 0000 0000 0000 0000
00000090: 0000 0000 0000 0000 0000 0000 0000 0000
000000a0: 0000 0000 0000 0000 0000 0000 0000 0000
000000b0: 0000 0000 0000 0000 0000 0000 0000 0000
000000c0: 0000 0000 0000 0000 0000 0000 0000 0000
000000d0: 0000 0000 0000 0000 0000 0000 0000 0000
000000e0: 0000 0000 0000 0000 0000 0000 0000 0000
000000f0: 0000 0000 0000 0000 0000 0000 0000 0000
0.0 0.0 0.0 0.0 0.0 0.0 0.0 0.0
0.0 0.0 0.0 0.0 0.0 0.0 0.0 0.0
0.0 0.0 0.0 0.0 0.0 0.0 0.0 0.0
0.0 0.0 0.0 0.0 0.0 0.0 0.0 0.0
0.0 0.0 0.0 0.0 0.0 0.0 0.0 0.0
0.0 0.0 0.0 0.0 0.0 0.0 0.0 0.0
0.0 0.0 0.0 0.0 0.0 0.0 0.0 0.0
0.0 0.0 0.0 0.0 0.0 0.0 0.0 0.0

module.bn3.running_mean f4 [64]
00000000: 0000 0000 0000 0000 0000 0000 0000 0000
00000010: 0000 0000 0000 0000 0000 0000 0000 0000
00000020: 0000 0000 0000 0000 0000 0000 0000 0000
00000030: 0000 0000 0000 0000 0000 0000 0000 0000
00000040: 0000 0000 0000 0000 0000 0000 0000 0000
00000050: 0000 0000 0000 0000 0000 0000 0000 0000
00000060: 0000 0000 0000 0000 0000 0000 0000 0000
00000070: 0000 0000 0000 0000 0000 0000 0000 0000
00000080: 0000 0000 0000 0000 0000 0000 0000 0000
00000090: 0000 0000 0000 0000 0000 0000 0000 0000
000000a0: 0000 0000 0000 0000 0000 0000 0000 0000
000000b0: 0000 0000 0000 0000 0000 0000 0000 0000
000000c0: 0000 0000 0000 0000 0000 0000 0000 0000
000000d0: 0000 0000 0000 0000 0000 0000 0000 0000
000000e0: 0000 0000 0000 0000 0000 0000 0000 0000
000000f0: 0000 0000 0000 0000 0000 0000 0000 0000
0.0 0.0 0.0 0.0 0.0 0.0 0.0 0.0
0.0 0.0 0.0 0.0 0.0 0.0 0.0 0.0
0.0 0.0 0.0 0.0 0.0 0.0 0.0 0.0
0.0 0.0 0.0 0.0 0.0 0.0 0.0 0.0
0.0 0.0 0.0 0.0 0.0 0.0 0.0 0.0
0.0 0.0 0.0 0.0 0.0 0.0 0.0 0.0
0.0 0.0 0.0 0.0 0.0 0.0 0.0 0.0
0.0 0.0 0.0 0.0 0.0 0.0 0.0 0.0

module.bn3.running_var f4 [64]
00000000: 0000 803f 0000 803f 0000 803f 0000 803f
00000010: 0000 803f 0000 803f 0000 803f 0000 803f
00000020: 0000 803f 0000 803f 0000 803f 0000 803f
00000030: 0000 803f 0000 803f 0000 803f 0000 803f
00000040: 0000 803f 0000 803f 0000 803f 0000 803f
00000050: 0000 803f 0000 803f 0000 803f 0000 803f
00000060: 0000 803f 0000 803f 0000 803f 0000 803f
00000070: 0000 803f 0000 803f 0000 803f 0000 803f
00000080: 0000 803f 0000 803f 0000 803f 0000 803f
00000090: 0000 803f 0000 803f 0000 803f 0000 803f
000000a0: 0000 803f 0000 803f 0000 803f 0000 803f
000000b0: 0000 803f 0000 803f 0000 803f 0000 803f
000000c0: 0000 803f 0000 803f 0000 803f 0000 803f
000000d0: 0000 803f 0000 803f 0000 803f 0000 803f
000000e0: 0000 803f 0000 803f 0000 803f 0000 803f
000000f0: 0000 803f 0000 803f 0000 803f 0000 803f
1.0 1.0 1.0 1.0 1.0 1.0 1.0 1.0
1.0 1.0 1.0 1.0 1.0 1.0 1.0 1.0
1.0 1.0 1.0 1.0 1.0 1.0 1.0 1.0
1.0 1.0 1.0 1.0 1.0 1.0 1.0 1.0
1.0 1.0 1.0 1.0 1.0 1.0 1.0 1.0
1.0 1.0 1.0 1.0 1.0 1.0 1.0 1.0
1.0 1.0 1.0 1.0 1.0 1.0 1.0 1.0
1.0 1.0 1.0 1.0 1.0 1.0 1.0 1.0

module.fc1.weight f4 [64, 64]
00000000: 0027 39ba 20a0 1c3d 001c 343c d060 d23d
00000010: 18c7 da3c 20ac ab3b 0007 45bb 58c4 b7bd
00000020: b66f 8e3d 08b2 f33c 0cde 9d3d 201c bd3b
00000030: 9802 bc3c b26c b53d c05f 8a3d e093 d1bc
00000040: f86f 93bd f8ff fdbd 2a01 8dbd 442b 66bd
00000050: 3cb4 ac3d ccfc 0abd 7ae5 ef3d 02fe ae3d
00000060: 1894 e9bd 5033 db3c 1c9f 9b3d 8c36 703d
00000070: c411 2b3d 802a 00bc 683c 9f3d 4622 9ebd
00000080: 3a49 a53d 5ea2 8e3d 20a2 a7bd 18a3 88bd
00000090: d865 393d 00eb 71bb 881c da3d 3a6c a93d
000000a0: 0e22 febd 008d f03d 5e66 d9bd 5c3e 57bd
000000b0: c0c5 8dbd 2821 99bd 7aa6 a03d 1cad 413d
000000c0: 2257 8d3d 004a e93c e2c9 b3bd 38fd 1d3d
000000d0: 84ba 0bbd e857 d0bc d449 f4bd 70ff 7d3c
000000e0: 4e21 ddbd b2fc 893d d6e2 f43d 94f1 803d
000000f0: f029 e43c 1c17 3b3d 6063 e73c aca8 923d
00000100: f4a3 d53d 2c32 3e3d 68ca 6abd c07d 723b
00000110: 3e76 d4bd 405f 813c 8cd0 f33d e8e6 c8bd
00000120: 0885 94bd c82d 95bc 280e 113d 78f6 aabd
00000130: 50e5 c93c 40b1 e1bd f419 3e3d a4f5 523d
00000140: 9842 c53d 1e6c 9a3d 1275 f5bd 38ff c83c
00000150: 8875 09bd 7cb6 58bd e076 82bb 58ef e23d
00000160: a434 96bd 10b7 fc3c f6e9 e23d 0e3f 8c3d
00000170: a0a6 f73b e05b c9bb acf9 47bd 68c2 f6bd
00000180: 18ed ebbc 5272 b5bd d83e a6bc d06d 4d3d
00000190: b6de ff3d 9051 c1bd c08d bdbc 8084 f8ba
000001a0: 0067 ce3b 2cd2 31bd 58de adbc 509d eb3c
000001b0: 3858 eabd d8e6 e63d cca6 44bd 1423 ee3d
000001c0: 5262 ce3d 94b1 983d 484f d3bd 3cc5 653d
000001d0: a449 773d f086 cbbd 184e e53c 28fa 3e3d
000001e0: ac1c c5bd 20ef 4b3c ce37 c9bd 38ea a2bc
000001f0: 1090 2bbc 60f6 f6bc 2ce2 b43d 1c0b 30bd
00000200: 6214 e3bd 94e5 eb3d c075 fcbd 802e 323d
00000210: 8497 89bd cc26 4d3d 509d 78bc 90d8 933c
00000220: 44f0 ed3d ae5b 8cbd 5049 ae3c 0648 a03d
00000230: b286 fa3d fe80 e63d 9025 e73d 4813 eebd
00000240: 0498 c83d a0c2 ca3d 6cea 0bbd 4cd2 68bd
00000250: d486 4b3d ccd4 bebd 1e84 ff3d f8f5 bcbd
00000260: 0450 b83d ccf3 adbd 02d4 adbd f402 923d
00000270: 5840 b13d 40b8 3fbb 58a1 d23d e2ab 9fbd
00000280: f8c4 a3bc c0d1 7cbc 70b4 9a3d 8437 ba3d
00000290: be5f bf3d a079 623d 3c5d 5d3d dc12 e9bd
000002a0: 4cf9 2bbd 5ad2 efbd 20d5 cf3c f04f 6cbd
000002b0: d487 6dbd 7842 e3bc e4f8 91bd 703b 51bc
000002c0: 0042 513b 5c62 703d 54ed a73d 0025 58bb
000002d0: d0dc 603d 4073 9a3d 8045 4bbd c2b1 d03d
000002e0: 9a6f d13d 301a 9e3d 3c67 0e3d e836 3abd
000002f0: e403 65bd a4dc 813d 4016 38bb 2a5d bbbd
00000300: 6cb3 9cbd bc2c cdbd b41a e93d 7000 7ebc
00000310: 2019 8f3b 9859 2dbd fc2f 943d c831 de3c
00000320: 8c7d b2bd da42 f3bd 5816 fb3d b044 6bbc
00000330: 76f7 a2bd 42d3 f13d 34bd 9dbd b05f e7bd
00000340: 0085 833d 9087 3cbc 7071 9b3d b8eb 7bbd
00000350: f83f c33c d8ea 8e3c e48e 68bd 2c56 e4bd
00000360: 4860 4bbd 5c67 46bd 18a2 fdbc 3098 563c
00000370: acce 74bd c680 f3bd 805d ddbc f87b 703d
00000380: 5af9 923d f8c1 783d 64b7 873d e60d e7bd
00000390: 44a8 cb3d dc6c 0abd 0412 abbd 180d c23c
000003a0: d297 ff3d 80ef f8bb d84f e1bc 808f e5bb
000003b0: 86be ebbd 8ef8 fe3d 205b 76bc 3a4b 91bd
000003c0: d8aa b03c c868 68bd d852 f3bd 0438 09bd
000003d0: 5c2f 69bd 78b5 733d 4085 68bd 70e9 073c
000003e0: dced 1cbd 1c88 25bd 78f7 243d 7077 f9bc
000003f0: f64d d2bd 98a4 5b3d 560a ed3d 8460 443d
-0.00070630014 0.038238645 0.010993004 0.10272372 0.026706263 0.0052390248 -0.0030063987 -0.089729965
0.06954901 0.029747978 0.07708368 0.005771175 0.022950456 0.088586226 0.06756544 -0.025583208
-0.07199091 -0.12402338 -0.06884988 -0.056193605 0.084328145 -0.033932492 0.11713691 0.08544542
-0.114052 0.026757866 0.07598707 0.05864577 0.04176499 -0.007822633 0.077751935 -0.07721381
0.080706075 0.06964563 -0.0818522 -0.06671733 0.04526314 -0.0036913753 0.10649973 0.08272596
-0.12408839 0.117456436 -0.10615228 -0.052549705 -0.069224834 -0.07477027 0.07844253 0.04728423
0.06901385 0.028477669 -0.087787405 0.038571566 -0.034113422 -0.025432542 -0.11928144 0.015502796
-0.10797368 0.06737651 0.11957328 0.06296077 0.027852029 0.045676336 0.028245628 0.07161078
0.10431662 0.046434566 -0.057321936 0.0037001222 -0.103741154 0.015792489 0.119050115 -0.09809667
-0.07251936 -0.018210307 0.03541389 -0.083477914 0.024645478 -0.11020136 0.04641147 0.051503792
0.096318424 0.07540153 -0.1198522 0.02453576 -0.033559352 -0.052908406 -0.003981456 0.110808074
-0.07334259 0.03084901 0.11079781 0.06847964 0.007557705 -0.0061449856 -0.04882209 -0.12048799
-0.028799579 -0.088596955 -0.020293638 0.050153553 0.124936506 -0.09439385 -0.02313888 -0.0018960387
0.0062988997 -0.043413326 -0.021224186 0.028761536 -0.11442608 0.11274499 -0.048010632 0.11627784
0.10077347 0.07455745 -0.10317856 0.0560963 0.060372964 -0.09937847 0.02799134 0.046625286
-0.09624609 0.012447149 -0.09825097 -0.019887075 -0.010471359 -0.030146778 0.08832201 -0.042979345
-0.11087872 0.11518398 -0.123271465 0.043501377 -0.067183524 0.050085828 -0.015174225 0.018047601
0.11618093 -0.06853424 0.021275192 0.078262374 0.12232722 0.11255072 0.11286461 -0.11624771
0.0979462 0.09900403 -0.03415911 -0.05684118 0.04968913 -0.093179315 0.12476371 -0.09226602
0.08999637 -0.08493766 -0.08487703 0.071294695 0.08654851 -0.0029254109 0.1028468 -0.07796456
-0.019991383 -0.015430868 0.07553947 0.0909262 0.09344433 0.055291772 0.054043993 -0.1138055
-0.041985795 -0.11710043 0.02537018 -0.05769342 -0.057990864 -0.027741656 -0.0712755 -0.012770519
0.0031930208 0.058687553 0.081995636 -0.0032981038 0.054898083 0.075415134 -0.049626827 0.101901546
0.102263644 0.077198386 0.03476642 -0.04546252 -0.055911914 0.06340912 -0.0028089434 -0.09148629
-0.076514095 -0.10018298 0.11382046 -0.015503034 0.004367009 -0.04232177 0.07235715 0.027123347
-0.087153524 -0.11877985 0.12260121 -0.014359638 -0.07957356 0.11807872 -0.07702103 -0.11297548
0.06421852 -0.01150693 0.07589996 -0.061504096 0.023834214 0.017445967 -0.056776896 -0.111492485
-0.049652368 -0.048438415 -0.030961081 0.013097808 -0.05976741 -0.11889796 -0.027022123 0.058711976
0.07176466 0.060731858 0.06626776 -0.11281948 0.099442035 -0.033795223 -0.083530456 0.023687884
0.12480129 -0.00759691 -0.027503893 -0.007005632 -0.11510949 0.12449752 -0.015036374 -0.070944265
0.02156584 -0.056740552 -0.118810356 -0.033500686 -0.05692993 0.059499234 -0.056767702 0.008295402
-0.038312778 -0.040413007 0.040275067 -0.03045246 -0.10268776 0.053623766 0.11574237 0.047943607

module.fc1.bias f4 [64]
00000000: e86c ee3d 90be b63c 2642 b5bd 00a8 d03d
00000010: 6455 b2bd 5004 4c3d 5010 4d3d c0c2 d5bd
00000020: 386a 533d 84a7 d03d d65b 893d 3027 93bc
00000030: 6e45 fa3d 16c1 9e3d 108c 86bd 182d 67bd
00000040: 10da 64bc 4cba 5cbd a60b a2bd 20fe 82bb
00000050: 6260 abbd 487b b5bd 3075 2dbc 80df ff3a
00000060: eaf2 a63d a8f3 eb3c e636 a03d 6c93 943d
00000070: 4e24 9b3d b43d 52bd a626 a9bd d0cd c1bc
00000080: a476 393d 806e e83d d82b c23d 2edc d43d
00000090: a0c0 debb a427 6dbd 78b6 f63d 7e8a 87bd
000000a0: fa1c be3d b8a8 e13c 283a 883c 58be f03d
000000b0: f073 c13d eaac c83d 8ed7 c9bd 60e7 6cbd
000000c0: 4a31 afbd 9cca 643d b8ad d43c c053 c4bc
000000d0: 10f6 48bd a4b5 c7bd 4003 453b c227 bf3d
000000e0: 5cf7 2a3d 5467 bf3d d229 983d 1c6c 63bd
000000f0: a01c e3bc 260f 9b3d b087 09bd ae0a efbd
0.11641866 0.022307664 -0.088505074 0.101882935 -0.08707693 0.0498088 0.050064385 -0.10437536
0.05161497 0.10188201 0.067069694 -0.017963022 0.12220274 0.07751672 -0.065696836 -0.05643949
-0.013968006 -0.053888604 -0.07912378 -0.003997579 -0.08367993 -0.08861405 -0.010587022 0.0019521564
0.08151801 0.028802708 0.07822971 0.07254681 0.07575284 -0.051328376 -0.08259325 -0.02365771
0.04527916 0.11349201 0.09481019 0.103935584 -0.006797865 -0.057899132 0.12046522 -0.06618212
0.092828706 0.027546272 0.016629294 0.11755055 0.094459414 0.09798606 -0.09855567 -0.057837844
-0.08554323 0.055857286 0.025961742 -0.023965716 -0.04906279 -0.09751442 0.0030061752 0.09333755
0.041739807 0.0934588 0.074298516 -0.055523023 -0.02772361 0.07571249 -0.033576667 -0.11671959

module.fc2.weight f4 [1, 64]
00000000: 6c14 58bd 5ec4 d0bd 3270 85bd f0a3 643c
00000010: 7652 f0bd 8081 073c e4cc 7a3d b085 e43d
00000020: 6c24 e6bd e641 ecbd fe1c a93d 7a74 b33d
00000030: 4066 4b3d a614 f6bd e028 54bc 688f c23d
00000040: 3ad7 bc3d 5c5b 733d 3e70 dcbd c0ad 803c
00000050: 0451 b2bd 4c62 01bd 9ef7 c7bd ac5d f0bd
00000060: f85f 71bd c069 9dbc 4c8d 2e3d 9421 ef3d
00000070: 82f3 c0bd 74f5 273d eaac dfbd c412 22bd
00000080: 188a 253d 724d f9bd 00fc c0bb 62cf b7bd
00000090: 8009 ce3a 6035 913c 40f7 8c3c 4012 e13c
000000a0: 6437 c1bd ba81 f63d 5a06 ccbd 80b7 27bc
000000b0: 98ba d33d ee82 9e3d c868 2dbd f856 7cbd
000000c0: c064 8a3c 2caa ea3d 38fb 11bd 0070 2cbd
000000d0: 7e99 cebd 4e52 abbd b418 6b3d a803 d83c
000000e0: ecbe 5f3d 0863 a2bd aaea fa3d 682a d8bc
000000f0: 2001 d43c 4833 c33d 687b 823c 22e8 953d
-0.05275385 -0.10193704 -0.0651554 0.013955101 -0.11734478 0.008270621 0.061230555 0.11158311
-0.11237416 -0.11536007 0.08257483 0.087624505 0.04965806 -0.12015657 -0.0129491985 0.09500009
0.09220739 0.0594133 -0.10763596 0.01570785 -0.08706859 -0.031587884 -0.09764026 -0.117366165
-0.058929414 -0.019215465 0.04261522 0.116763264 -0.094214454 0.041005567 -0.109216526 -0.039568678
0.0404149 -0.12172975 -0.0058894157 -0.08975102 0.0015719384 0.017725646 0.017207742 0.027474523
-0.09434393 0.12036462 -0.09962149 -0.010236621 0.10338324 0.077398166 -0.042336255 -0.061606377
0.016893744 0.11458239 -0.03563997 -0.042099 -0.1008787 -0.08365308 0.057396606 0.026368931
0.054625437 -0.07929045 0.1225179 -0.026387408 0.025879443 0.095312655 0.015927985 0.073196664
